checkpoint/kitti2015_ck/checkpoint.tar (torch_old, 592121 bytes, 300 tensors)

module.refine_spn.0.0.weight f4 [16, 3, 3, 3]
-0.30151913 -0.11648693 0.17421992 -0.0055514765 0.39146313 0.2316368 -0.5956149 -0.09767281
0.1934433 0.33398414 0.19349766 -0.445076 0.13528058 0.606775 -0.066551745 -0.2614946
-0.06756402 0.022724207 0.085977964 -0.22579746 -0.33914334 0.0016283379 0.2179584 -0.14384633
-0.036669932 0.14501755 -0.034264643 0.017959278 0.074815616 -0.027107652 -0.008632565 0.25037664
0.32118607 0.046740465 -0.5266014 -0.27063242 -0.12647147 0.16641986 0.22858852 0.24738863
0.13884757 0.19825363 -0.026927646 -0.33713502 -0.41222802 -0.11637953 0.034202967 0.055733368
0.12293018 0.3644825 0.39291307 -0.05984931 -0.44225594 -0.15604205 0.2697351 0.31305012
0.046917167 0.108630896 0.12688364 -0.08970063 0.0035278192 -0.3944462 -0.51186633 -0.1782689
-0.30398116 0.34282526 -0.45110753 -0.1839221 0.48723158 -0.36120492 0.10845255 0.4601499
-0.24004325 -0.060633834 -0.5754968 0.45552433 0.07411819 -0.59017915 0.57438034 0.4618675
0.14516473 -0.23149128 0.05123601 0.17229801 0.15340616 -0.472304 0.44221392 -0.0017476452
-0.04056296 0.0945484 0.034420326 0.18324763 -0.09093217 0.23554793 -0.60611415 0.1959112
-0.049483262 -0.26005825 0.23271057 0.06533748 0.11143828 -0.30345413 0.49859065 -0.37703186
-0.113046326 0.32494906 -0.092924334 -0.16679706 0.06847409 0.25841933 0.16752121 -0.052361418
-0.009373111 0.051462732 -0.3339661 -0.22281107 -0.12473459 -0.39887804 -0.50706965 -0.31510067
0.13317223 -0.010949163 -0.4477657 0.68721175 0.6172137 0.44660255 0.012300451 0.5483767
0.18813044 0.20778872 0.010803973 0.096898 -0.47085062 -0.58971506 -0.0032727355 -0.2807578
-0.2790928 -0.46713147 0.016306972 -0.1235827 -0.45153296 0.77103364 0.90140337 -0.050867237
0.07253128 0.23300643 0.55619484 -0.31455973 0.055259377 0.4349559 -0.6525968 -0.3069707
0.08162867 0.2152702 0.045365646 -0.09914535 0.36904386 0.11597324 0.02291608 -0.18047942
-0.62877584 -0.037939105 0.15866233 -0.042838886 0.023826895 -0.15474078 0.17465167 -0.096071966
0.06982861 -0.11287751 0.12868993 0.028411862 -0.10786854 0.024364946 -0.12594715 0.1997444
-0.020762337 0.12935245 -0.14349653 -0.051830065 0.23277752 -0.11689147 0.06546783 -0.051488526
0.19948201 -0.097137615 0.004331661 -0.24571612 0.2819448 -0.18892632 -0.17131215 -0.14059614
0.1994013 -0.29437456 0.05984696 -0.005615975 -0.22527635 -0.057040207 0.16841997 0.39080453
0.0851293 0.38375145 0.16703777 0.05075075 0.28418055 0.20861056 0.41435093 -0.22077785
-0.12985766 -0.1478671 -0.00745561 -0.10630498 -0.14979011 -0.26218775 -0.25863215 -0.19706416
-0.1471628 -0.089371815 0.13731357 -0.57024896 -0.14345062 0.66112715 -0.11815546 0.04838247
0.1939111 0.10137674 0.028438516 0.06779669 -0.44637856 0.0334348 0.32868433 0.086536884
0.007340779 -0.31020272 -0.24035048 -0.23075555 0.53242713 -0.41528827 -0.077141024 0.36219662
-0.22287323 0.27740532 0.080166325 0.13666427 0.05520521 0.5225 -0.18998542 -0.3008477
0.022737 0.045153722 0.03317627 -0.056467447 0.04271609 0.26947168 0.30428395 -0.15358675
00000000: b760 9abe b390 eebd b566 323e 29e9 b5bb
00000010: db6d c83e 3332 6d3e 387a 18bf af08 c8bd
00000020: 0016 463e f8ff aa3e 4024 463e 00e1 e3be
00000030: fe86 0a3e 9b55 1b3f 484c 88bd 9fe2 85be
00000040: 015f 8abd 1e28 ba3c 3715 b03d 7337 67be
00000050: 32a4 adbe f46d d53a 7d30 5f3e 744c 13be
00000060: 3633 16bd 7b7f 143e 1559 0cbd 561f 933c
00000070: ee38 993d de10 debc 9a6f 0dbc 5e31 803e
00000080: 8072 a43e ee72 3f3d 59cf 06bf 5590 8abe
00000090: bd81 01be f869 2a3e 1c13 6a3e 7253 7d3e
000000a0: 0f2e 0e3e 0003 4b3e 5e97 dcbc f69c acbe
000000b0: 8d0f d3be 6458 eebd 6918 0c3d ac48 643d
000000c0: d1c2 fb3d 739d ba3e e72b c93e 8d24 75bd
000000d0: 5f6f e2be 7dc9 1fbe b81a 8a3e 1b48 a03e
000000e0: 372c 403d e079 de3d c9ed 013e f7b4 b7bd
000000f0: fc32 673b daf4 c9be ac09 03bf 1f8c 36be
00000100: 6ba3 9bbe cb86 af3e 91f7 e6be 1356 3cbe
00000110: 6b76 f93e daef b8be 5f1c de3d c598 eb3e
00000120: e6cd 75be 2f5b 78bd c253 13bf 7c3a e93e
00000130: 47cb 973d fb15 17bf 970a 133f e679 ec3e
00000140: 10a6 143e 0d0c 6dbe dadc 513d e46e 303e
00000150: 8116 1d3e d4d1 f1be dd69 e23e 3e11 e5ba
00000160: 5925 26bd 97a2 c13d 54fc 0c3d 44a5 3b3e
00000170: a53a babd 7a33 713e 4c2a 1bbf f29c 483e
00000180: f6ae 4abd 5b26 85be ae4b 6e3e a8cf 853d
00000190: c139 e43d 575e 9bbe 4647 ff3e 520a c1be
000001a0: d584 e7bd b95f a63e 1d4f bebd d9cc 2abe
000001b0: 253c 8c3d 8a4f 843e ae8a 2b3e ed78 56bd
000001c0: ad91 19bc 96ca 523d 9bfd aabe 9628 64be
000001d0: d974 ffbd be39 ccbe 51cf 01bf e054 a1be
000001e0: 4d5e 083e 1e64 33bc 8c41 e5be 1ced 2f3f
000001f0: b801 1e3f 17a9 e43e d587 493c 6a62 0c3f
00000200: 44a5 403e 91c6 543e 2603 313c 7572 c63d
00000210: 5513 f1be 91f7 16bf 647b 56bb 7dbf 8fbe
00000220: 40e5 8ebe db2b efbe 3396 853c ed18 fdbd
00000230: 542f e7be 7662 453f 5fc2 663f 2a5a 50bd
00000240: 488b 943d 3d99 6e3e c962 0e3f f90d a1be
00000250: a857 623d 8ab2 de3e 9510 27bf 432b 9dbe
00000260: ef2c a73d cb6f 5c3e 54d1 393d b80c cbbd
00000270: 51f3 bc3e 6183 ed3d 81ba bb3c 99cf 38be
00000280: 74f7 20bf 0966 1bbd 6178 223e d477 2fbd
00000290: 9f30 c33c 5e74 1ebe e3d7 323e 61c1 c4bd
000002a0: 4d02 8f3d 532c e7bd 4bc7 033e febf e83c
000002b0: 2eea dcbd ff98 c73c 4af8 00be cc89 4c3e
000002c0: c715 aabc f874 043e c1f0 12be c34b 54bd
000002d0: 3b5d 6e3e cc64 efbd ff13 863d a2e5 52bd
000002e0: 0345 4c3e 16f0 c6bd 9bf0 8d3b 029d 7bbe
000002f0: 125b 903e e775 41be 746c 2fbe 6ff8 0fbe
00000300: db2f 4c3e 43b8 96be 1622 753d 3606 b8bb
00000310: d8ae 66be fea2 69bd 4976 2c3e 8817 c83e
00000320: 4558 ae3d 127b c43e f30b 2b3e 05e0 4f3d
00000330: 1d80 913e 029e 553e ce25 d43e 9713 62be
00000340: 68f9 04be 796a 17be 314e f4bb 6db6 d9bd
00000350: 9462 19be 793d 86be 6f6b 84be 30cb 49be
00000360: d8b1 16be 9208 b7bd ee9b 0c3e d6fb 11bf
00000370: b8e4 12be a13f 293f 7dfb f1bd b22c 463d
00000380: a290 463e 9c9e cf3d e4f7 e83c fed8 8a3d
00000390: bb8b e4be eef2 083d 5049 a83e 403a b13d
000003a0: eb8a f03b e4d2 9ebe 701e 76be 2f4b 6cbe
000003b0: 254d 083f aaa0 d4be 1dfc 9dbd d671 b93e
000003c0: e138 64be 1208 8e3e 3e2e a43d b8f1 0b3e
000003d0: dc1e 623d 8fc2 053f 8a8b 42be b608 9abe
000003e0: f242 ba3c 1cf3 383d d7e3 073d 694a 67bd
000003f0: 11f7 2e3d 31f8 893e 1bcb 9b3e d845 1dbe

module.refine_spn.0.2.weight f4 [16, 16, 3, 3]
-0.14950925 0.00443332 -0.034079198 0.027897539 0.04903317 0.1403758 -0.49728885 -0.08157655
-0.18912631 0.25560364 0.12700857 0.15757166 0.15086798 -0.03292957 0.16574012 0.108301535
-0.004812597 0.067220695 1.1806413 1.032686 0.16773123 0.62308806 0.8254635 0.33795804
-0.27437422 -0.091993034 0.12167119 -0.03741526 -0.018961437 -0.14776501 -0.063315995 -0.012260246
-0.124763764 -0.2090283 -0.1527589 -0.22622983 1.0250341 0.7696802 0.7487074 0.39451972
0.6492548 0.31107813 -0.32471812 -0.11742467 -0.30503744 0.8147517 0.8802323 0.33639947
0.24594985 0.59981614 0.13094848 -0.24197881 -0.15726504 -0.14895411 -0.15520786 -0.05223907
-0.020963516 -0.15040392 -0.091641925 0.068444386 -0.29739553 -0.24840443 -0.053893544 -0.39518532
-0.23273191 -0.12001301 -0.21478431 -0.11760722 -0.20010053 0.13004546 0.23476772 -0.08403713
0.2287625 0.16126537 0.11421187 0.051741306 0.23025003 -0.03749427 -0.07643269 0.02199964
-0.10304955 0.08596281 -0.032986805 -0.14719109 0.017885309 -0.049707115 -0.027301524 -0.08783604
-0.034940127 -0.00311992 -0.3161519 -0.069322065 -0.24698876 -0.1949218 -0.09975588 0.07332172
-0.023498762 0.2016105 0.119471006 0.9052052 0.4925728 -0.17791265 0.32690358 0.3044779
0.16972446 0.18385017 -0.22156799 -0.43427804 -0.15031168 -0.11714641 -0.20447642 -0.08346996
0.1579063 0.0037144513 -0.42800438 0.06289069 0.061496593 0.20131268 0.09544933 0.14790718
0.3651393 -0.072927095 -0.22654006 -0.23092072 -0.42596245 -0.14082652 0.7318265 0.7440517
0.40055054 0.8666678 0.76408136 -0.044632666 -0.27159688 -0.3954879 -0.3636509 -0.6442067
-0.32667854 0.10954863 -0.37215853 -0.1596013 0.26019168 -0.15672994 0.16166674 0.23685752
-0.2464929 0.15894382 0.2706552 -0.21205896 0.25250465 0.12904195 -0.15484314 0.2753999
0.35538635 -0.119097315 -0.11800348 -0.005981347 -0.3625276 -0.22175027 -0.029756108 -0.2827369
-0.058058366 0.081204906 -0.40445948 0.25614268 0.8305614 -0.4176392 0.2722906 0.6390198
-0.0021657243 0.34767526 0.35872823 0.013557405 0.2632764 0.31391814 0.15450451 0.429402
0.23173316 -0.065317854 0.24191721 0.34249792 -0.4281065 0.19987191 0.8723203 -0.38053253
0.025200032 0.22198181 -0.24453327 -0.09725487 0.5166167 -1.0323102 0.37520054 0.48605075
-0.61653346 -0.022279825 -0.14113984 -0.45754555 -0.04419318 0.3900452 0.15498732 0.07168756
0.23108715 -0.14220199 0.034737285 -0.0084584905 -0.14873242 -0.20657542 -0.1560529 -0.2589006
-0.39424157 -0.2861645 -0.407884 -0.009285004 -0.41779903 0.041409124 0.06343336 0.2875449
0.047910172 0.39887 0.6721799 -0.16697766 -0.10964854 -0.008740003 -0.19360189 0.3413215
0.34518906 -0.28531685 0.06765782 0.060717724 -0.11878503 0.15381302 -0.031720623 0.05983712
0.22322899 -0.11356032 -0.1416672 -0.23879722 -0.06046391 0.0027077526 -0.09726227 -0.002144848
-0.055718914 -0.36503994 -0.2043519 -0.16727093 0.516792 0.7433025 -0.09861778 0.28192526
0.5520081 -0.13638404 0.073697455 0.73160976 -0.28332785 -0.049953606 0.3136677 0.16393979
00000000: f418 19be 6245 913b a196 0bbd 6189 e43c
00000010: 01d7 483d acbe 0f3e a59c febe 9b11 a7bd
00000020: 54aa 41be 7bde 823e 890e 023e 775a 213e
00000030: 237d 1a3e 28e1 06bd c7b7 293e 32cd dd3d
00000040: fdb2 9dbb 01ab 893d 411f 973f 0e2f 843f
00000050: bcc1 2b3e b382 1f3f 9351 533f d608 ad3e
00000060: c77a 8cbe d866 bcbd bf2e f93d be40 19bd
00000070: 0455 9bbc b64f 17be d1ab 81bd 33df 48bc
00000080: 2584 ffbd 840b 56be d46c 1cbe cba8 67be
00000090: 5134 833f c309 453f 4aab 3f3f 7dfe c93e
000000a0: 9035 263f a245 9f3e 7441 a6be 587c f0bd
000000b0: de2d 9cbe 9193 503f e756 613f 8d3c ac3e
000000c0: 47da 7b3e 8d8d 193f 5c17 063e 4bc9 77be
000000d0: 160a 21be 6d87 18be cfee 1ebe a3f8 55bd
000000e0: aebb abbc 7c03 1abe c3ae bbbd 922c 8c3d
000000f0: 3a44 98be bb5d 7ebe 7abf 5cbd bb55 cabe
00000100: 4651 6ebe 62c9 f5bd 6bf0 5bbe 0edc f0bd
00000110: 27e7 4cbe a32a 053e f366 703e a91b acbd
00000120: b840 6a3e c022 253e eae7 e93d b1ee 533d
00000130: aac6 6b3e 9793 19bd be88 9cbd 9738 b43c
00000140: a40b d3bd 450d b03d 2c1d 07bd 43b9 16be
00000150: 3684 923c b099 4bbd 72a7 dfbc 62e3 b3bd
00000160: 611d 0fbd 9277 4cbb a9de a1be baf8 8dbd
00000170: 9fea 7cbe 9599 47be d04c ccbd b329 963d
00000180: 7a80 c0bc fc72 4e3e 37ad f43d 87bb 673f
00000190: 8132 fc3e bc2e 36be e85f a73e 87e4 9b3e
000001a0: 40cc 2d3e 3843 3c3e b8e2 62be b159 debe
000001b0: 4eeb 19be 75ea efbd 4462 51be 4cf2 aabd
000001c0: 30b2 213e 276e 733b 6423 dbbe d6cc 803d
000001d0: dae3 7b3d e924 4e3e f07a c33d fb74 173e
000001e0: 8af3 ba3e cd5a 95bd 1efa 67be 7b76 6cbe
000001f0: c017 dabe d434 10be fb58 3b3f 2c7a 3e3f
00000200: f614 cd3e f1dd 5d3f d69a 433f bed0 36bd
00000210: bf0e 8bbe 647d cabe 7330 babe bbea 24bf
00000220: 6942 a7be 085b e03d 908b bebe 866e 23be
00000230: d837 853e d07d 20be f78b 253e c78a 723e
00000240: a368 7cbe 2bc2 223e 5293 8a3e fc25 59be
00000250: 4a48 813e 9323 043e 338f 1ebe 3701 8d3e
00000260: 33f5 b53e 4be9 f3bd cfab f1bd 2dff c3bb
00000270: 389d b9be 8112 63be 15c3 f3bc e4c2 90be
00000280: 9cce 6dbd c24e a63d 5015 cfbe 2225 833e
00000290: ac9f 543f ced4 d5be ac69 8b3e cd96 233f
000002a0: d3ee 0dbb 7e02 b23e 3aab b73e e11f 5e3c
000002b0: 2acc 863e e1b9 a03e 6e36 1e3e 94da db3e
000002c0: 754b 6d3e 5ec5 85bd 25b9 773e e35b af3e
000002d0: c630 dbbe 39ab 4c3e 6250 5f3f 29d5 c2be
000002e0: 4c70 ce3c 334f 633e ee66 7abe 902d c7bd
000002f0: fe40 043f be22 84bf 491a c03e a5db f83e
00000300: 23d5 1dbf 2e84 b6bc f686 10be 6943 eabe
00000310: e803 35bd 01b4 c73e ffb4 1e3e edd0 923d
00000320: 1ca2 6c3e 669d 11be af48 0e3d 7b95 0abc
00000330: 504d 18be 8288 53be 55cc 1fbe 9f8e 84be
00000340: 08da c9be 2784 92be 2cd6 d0be 2120 18bc
00000350: c1e9 d5be 9d9c 293d 59e9 813d 1639 933e
00000360: 753d 443d b038 cc3e fb13 2c3f 31fc 2abe
00000370: 6a8f e0bd 3b32 0fbc 933f 46be b1c1 ae3e
00000380: 9fbc b03e 0d15 92be 2f90 8a3d 26b3 783d
00000390: 9145 f3bd 2981 1d3e 7ced 01bd c517 753d
000003a0: 2496 643e 5092 e8bd 3511 11be 4287 74be
000003b0: 01a9 77bd 8d74 313b 7131 c7bd 9490 0cbb
000003c0: 8439 64bd 84e6 babe a041 51be 1249 2bbe
000003d0: 7b4c 043f 1349 3e3f 1ef8 c9bd 8258 903e
000003e0: 6750 0d3f 42a8 0bbe b1ee 963d c74a 3b3f
000003f0: 5910 91be 279c 4cbd 0e99 a03e d5df 273e

module.refine_spn.0.4.weight f4 [16, 16, 3, 3]
-0.14112566 -0.42941877 -0.23833768 0.32030883 -0.28760302 -0.33543837 0.2110659 0.10727875
0.18838523 0.14800116 0.4263871 -0.015168321 0.09900664 0.05937288 -0.016480945 0.30252287
-0.00031730198 0.15726537 0.21556145 0.15690665 0.09562815 0.1312228 -0.009391174 0.18659538
0.13808374 0.23923317 -0.06817428 -0.93388134 -0.49953553 -0.28216717 0.030494353 -0.17395103
0.06040272 -0.20006247 -0.11510447 0.25426185 0.10810255 0.600292 0.788716 -0.30442426
0.12967479 0.023098195 -0.24360019 -0.26510444 -0.43454024 -0.4498302 -0.40057343 -0.44249302
-0.39402395 -0.16716202 -0.21543197 -0.030384414 -0.24293235 -0.003515724 0.12087912 0.19540584
0.10916714 -0.0024932034 -0.12908883 -0.07391949 0.35599196 0.046146944 0.03413562 0.08235122
0.1182728 0.07678583 -0.15872303 0.32152438 0.027864406 -0.33440536 -0.28432974 0.008996756
-0.018710196 -0.23759599 -0.088367544 0.4031787 -0.008540136 -0.02774453 0.13086165 -0.04602168
0.14653182 -0.37361446 -0.06499456 -0.24202876 -0.048651714 -0.18564332 -0.1901604 -0.14494343
-0.056781065 -0.032568917 -0.020217596 0.083568305 0.08558873 -0.058679715 0.19256672 0.013402928
-0.2519001 -0.36334905 -0.08898854 0.31846952 -0.030649155 0.09458817 0.15162875 0.019319883
0.09267745 -0.25422403 -0.056869287 -0.22322278 -0.0055772527 0.14692077 0.42928815 -0.24035716
0.12164911 0.031265676 -0.3144166 -0.2790814 -0.41401297 0.06556822 -0.7199183 -0.0681613
0.39709666 -0.100523755 -0.24010752 0.30154938 0.16615051 0.21564275 -0.021471092 -0.17318556
-0.7825643 0.15367393 0.12927641 -0.039765153 0.031448428 0.08670998 0.21531911 -0.3107861
-0.3407082 -0.36107594 -0.1658391 -0.1400195 -0.079998866 0.014366305 -0.21728703 -0.35228914
0.34077665 0.27982515 0.40878603 -0.222068 -0.11771102 0.28758392 -0.050968703 -0.45458502
0.0731332 -0.35959652 0.1311437 0.14208509 -0.50423527 0.10579482 0.16567507 -0.52582705
0.1810964 0.10763995 -0.18347977 -0.007428345 -0.12858924 -0.30860803 0.1309703 0.03330917
-0.00014356908 0.1102057 0.039210647 0.41632035 -0.07306358 0.083195716 -0.38959816 -0.08208342
-0.49231422 0.30220884 -0.033421297 -0.37990257 -0.30536792 -0.43925634 -0.67675567 0.47415468
-0.018946487 -0.23925596 0.9096536 0.24569836 -0.36895844 -0.4318261 -0.23515663 -0.6448593
-0.71534455 -0.19965492 -0.83619446 -0.9751211 -0.41642022 -0.7525548 0.2014072 0.28450254
0.10303433 0.07807333 0.08164053 -0.35763416 -0.51315874 -0.13254485 0.5588532 -0.3520571
-0.6199491 -0.7119311 0.24436577 -0.08991627 -0.32325402 0.79557145 0.39131668 -0.070238754
-0.20121868 -0.25289518 0.22237334 0.32613018 -0.14344701 0.11312175 -0.17380542 -0.0801547
0.26098114 0.33850238 0.19641298 0.32473984 -0.09443091 0.19713311 -0.05222404 -0.024807727
0.25414777 -0.087757915 -0.15619153 -0.049552698 -0.12825298 0.079711035 -0.21440957 -0.14892553
0.33356136 0.047266036 0.0540553 -0.104489654 -0.17135926 -0.072871454 0.14530998 -0.026833506
-0.07846934 0.070635445 0.017121334 0.22512935 -0.05646041 -0.27964616 -1.3862467 0.11629029
00000000: 3f83 10be c7dc dbbe cb0e 74be 85ff a33e
00000010: b440 93be 94be abbe a921 583e f6b4 db3d
00000020: 0fe8 403e 9e8d 173e 694f da3e 8d84 78bc
00000030: fec3 ca3d fa30 733d 0c03 87bc 47e4 9a3e
00000040: 8d5b a6b9 2c0a 213e 24bc 5c3e 23ac 203e
00000050: b1d8 c33d 455f 063e 70dd 19bc dc12 3f3e
00000060: d365 0d3e 8af9 743e f59e 8bbd d912 6fbf
00000070: 1fc3 ffbe 3778 90be 4bcf f93c 3820 32be
00000080: d868 773d 2ddd 4cbe e4bb ebbd 9c2e 823e
00000090: df64 dd3d bdac 193f 4be9 493f 7fdd 9bbe
000000a0: 78c9 043e 6d38 bd3c 5472 79be c5bb 87be
000000b0: 0f7c debe 2550 e6be f617 cdbe 728e e2be
000000c0: 82bd c9be 852c 2bbe 339a 5cbe bce8 f8bc
000000d0: 42c3 78be 1068 66bb 798f f73d 7818 483e
000000e0: 0693 df3d 0365 23bb dd2f 04be 1a63 97bd
000000f0: 9444 b63e 9404 3d3d cbd1 0b3d c2a7 a83d
00000100: 0339 f23d e441 9d3d 4a88 22be d89e a43e
00000110: e543 e43c 2e37 abbe ab93 91be 2167 133c
00000120: 2046 99bc 5d4c 73be 0bfa b4bd 706d ce3e
00000130: edeb 0bbc 7f48 e3bc 9900 063e 3b81 3cbd
00000140: 700c 163e 654a bfbe de1b 85bd 63d6 77be
00000150: 0547 47bd 4819 3ebe 68b9 42be 0d6c 14be
00000160: 4393 68bd fc66 05bd 5f9f a5bc dc25 ab3d
00000170: 2549 af3d 245a 70bd 3630 453e f497 5b3c
00000180: 0df9 80be e308 babe a03f b6bd 700e a33e
00000190: f013 fbbc 71b7 c13d 9144 1b3e bb44 9e3c
000001a0: adcd bd3d a729 82be c5ef 68bd 8394 64be
000001b0: 63c1 b6bb 6672 163e a8cb db3e 3020 76be
000001c0: 2b23 f93d 7010 003d 36fb a0be c2e3 8ebe
000001d0: 82f9 d3be a248 863d 914c 38bf 2798 8bbd
000001e0: 4150 cb3e 66df cdbd bfde 75be ae64 9a3e
000001f0: 5c23 2a3e 74d1 5c3e 25e4 afbc 8e57 31be
00000200: 2256 48bf b35c 1d3e 0961 043e c9e0 22bd
00000210: 11d0 003d 0195 b13d 9d7c 5c3e 5b1f 9fbe
00000220: 4e71 aebe f2de b8be bad1 29be 4661 0fbe
00000230: 72d6 a3bd a760 6b3c 7e80 5ebe 3e5f b4be
00000240: 477a ae3e 3e45 8f3e 674c d13e cb65 63be
00000250: 7a12 f1bd 333e 933e 8fc4 50bd 5ebf e8be
00000260: dcc6 953d 091d b8be 894a 063e c17e 113e
00000270: 9015 01bf f4aa d83d baa6 293e 9a9c 06bf
00000280: 5671 393e 5672 dc3d 1fe2 3bbe 7969 f3bb
00000290: e6ac 03be df01 9ebe 141d 063e 326f 083d
000002a0: 088b 16b9 87b3 e13d 589b 203d f127 d53e
000002b0: 5ca2 95bd 8462 aa3d 6979 c7be 5a1b a8bd
000002c0: 9c10 fcbe 1ebb 9a3e c5e4 08bd 9782 c2be
000002d0: 2f59 9cbe 35e6 e0be dc3f 2dbf 67c4 f23e
000002e0: aa35 9bbc 84ff 74be 0fdf 683f 5a98 7b3e
000002f0: 1fe8 bcbe 5018 ddbe e6cc 70be 8015 25bf
00000300: d220 37bf 5772 4cbe d710 56bf 89a1 79bf
00000310: 0835 d5be 6ea7 40bf b03d 4e3e 51aa 913e
00000320: aa03 d33d e9e4 9f3d 2633 a73d d31b b7be
00000330: 5f5e 03bf d6b9 07be 0111 0f3f d440 b4be
00000340: fcb4 1ebf 1e41 36bf 053b 7a3e 0526 b8bd
00000350: 8d81 a5be 92aa 4b3f a95a c83e 56d9 8fbd
00000360: 450c 4ebe 7a7b 81be d6b5 633e 89fa a63e
00000370: c6e3 12be 60ac e73d 0cfa 31be 2628 a4bd
00000380: 529f 853e 2f50 ad3e 7c20 493e 4d44 a63e
00000390: fe64 c1bd 43dd 493e e0e8 55bd 9339 cbbc
000003a0: a81f 823e 6cba b3bd acf0 1fbe c5f7 4abd
000003b0: c054 03be 8a3f a33d 2f8e 5bbe ef7f 18be
000003c0: 8ec8 aa3e 089a 413d 1769 5d3d acfe d5bd
000003d0: cd78 2fbe a13d 95bd 24cc 143e f1d1 dbbc
000003e0: 89b4 a0bd 51a9 903d 0a42 8c3c 4f88 663e
000003f0: 0843 67bd c82d 8fbe 8870 b1bf 9b29 ee3d

module.refine_spn.0.6.weight f4 [24, 16, 3, 3]
0.1089471 -0.28213292 -0.20355374 0.25166285 0.48329562 -0.028756568 -0.17017508 0.15418014
-0.017597131 -0.06754251 0.03464332 0.2380852 0.07442312 0.2837167 0.5207033 -0.10035221
0.14659327 0.43237072 0.09319951 0.11204861 0.009324381 -0.19384399 -0.24952662 -0.25784212
0.48747593 0.49942914 0.8825906 0.20999011 0.21810512 -0.3018289 0.31781143 0.2041818
0.093237326 0.20248301 -0.018895106 -0.04795773 -0.3424149 -0.10487862 -0.092354365 0.04990224
0.02709221 -0.1417628 -0.21183454 -0.047480553 0.056478355 -0.13233788 -0.08303983 -0.04243747
-0.09702857 0.23632006 -0.024725288 0.12388915 0.194634 -0.081430204 0.44103634 0.375889
0.031656276 0.030497972 -0.2509127 0.15307266 0.18464124 0.0072740647 0.323597 0.14550796
-0.17156614 -0.09249088 0.037890676 -0.07760246 -0.1255295 0.39787027 -0.07002282 0.041522726
1.746196 0.2197824 -0.53414 1.0168647 0.77938676 0.028670538 0.30412218 -0.35693824
-0.329346 0.11968716 -0.06322691 0.076504715 0.33890152 -0.017128006 -0.06650827 0.11288762
0.056082077 0.062256664 -0.07166826 -0.2312786 0.14689869 0.20127302 0.041466232 0.028041719
0.042328298 0.034735747 0.08095384 0.13724318 0.25404593 -0.091316275 -0.11582629 -0.019023567
-0.33892405 -0.11058132 0.0062708803 -0.21146125 0.2818427 0.9272507 0.2893809 0.18085256
0.5262022 -0.3406421 0.16889961 0.3324722 -0.21287885 0.29276946 0.058962382 0.07140401
0.008679315 0.1353084 0.09556931 -0.10217154 -0.0053650346 0.022094766 0.6486497 0.3621722
0.08015579 0.17169952 0.09029719 0.06702894 0.039741095 0.20004006 -0.104463115 -0.12893409
0.26608735 -0.057631638 -0.32825395 0.3725988 0.1835788 -0.12721694 0.045635168 0.11775015
-0.08903094 -0.028069653 -0.10858351 -0.19153337 -0.3015267 -0.054184522 0.12357519 -0.26611286
0.24267332 0.03439685 0.06693713 0.06796859 0.07644557 -0.041693255 0.13116974 -0.39559373
0.08226216 -0.2890265 -0.017061628 0.015845917 0.04735017 -0.2650982 -0.15641178 -0.21843559
-0.43251348 -0.2212709 -0.2385957 0.031123921 -0.085688375 0.054164883 0.19953173 0.018259889
0.32686722 0.28698048 -0.15532929 0.31901407 -0.01266755 0.06617167 0.024164941 0.12636198
0.10603258 0.1475746 0.44548106 0.39925203 0.25408345 0.07039176 0.008511785 -0.032758355
0.053344518 0.14508203 0.12121685 0.20263797 0.35014176 0.2641761 0.016537657 0.058604226
0.06265657 0.14264289 0.030094536 -0.12483447 -0.16882586 -0.351753 0.11556686 -0.18067628
0.37630248 0.19944979 -0.11532025 -0.09574053 -0.2079692 -0.13525823 0.54731774 0.01175301
-0.18719606 -0.048527244 -0.36670962 0.5039684 -0.01171419 -0.20950729 0.4463044 0.33755144
0.0003855572 0.0011751837 0.03494111 -0.015002093 0.1122607 0.08641728 0.09771982 0.3794966
0.20823397 0.37852624 -0.056794573 -0.00972681 -0.020060586 0.014584637 -0.004425996 -0.10515549
0.059179343 -0.06925799 0.044897396 -0.027805584 -0.0080294795 0.043973394 0.14680646 0.07202008
0.17888023 0.2557782 0.060926065 0.3058607 -0.06532814 -0.025875563 -0.0640589 -0.07777659
00000000: a81f df3d ba73 90be 6470 50be f4d9 803e
00000010: 8672 f73e e592 ebbc 6042 2ebe 66e1 1d3e
00000020: dc27 90bc ba53 8abd 27e6 0d3d 9bcc 733e
00000030: 266b 983d 5143 913e d04c 053f 7685 cdbd
00000040: 8c1c 163e b25f dd3e 62df be3d be79 e53d
00000050: 4ac5 183c 0a7f 46be e883 7fbe e203 84be
00000060: 7296 f93e 2db5 ff3e 75f1 613f a607 573e
00000070: f356 5f3e 5189 9abe 2eb8 a23e 0915 513e
00000080: 36f3 be3d b557 4f3e e9c9 9abc 536f 44bd
00000090: 0151 afbe 9aca d6bd 4924 bdbd 4b66 4c3d
000000a0: 7bf0 dd3c 442a 11be 27eb 58be f87a 42bd
000000b0: d955 673d 9583 07be c910 aabd ead2 2dbd
000000c0: eab6 c6bd e3fd 713e b08c cabc 98b9 fd3d
000000d0: 234e 473e e1c4 a6bd 84cf e13e 8674 c03e
000000e0: 03aa 013d e2d6 f93c a177 80be 14bf 1c3e
000000f0: 9812 3d3e 475b ee3b 82ae a53e 0a00 153e
00000100: 09af 2fbe dc6b bdbd 4133 1b3d 0aee 9ebd
00000110: ce8a 00be a7b5 cb3e 2068 8fbd bc13 2a3d
00000120: 5a83 df3f a30e 613e 66bd 08bf 9f28 823f
00000130: e485 473f 7ade ea3c e7b5 9b3e 9cc0 b6be
00000140: 0aa0 a8be 8b1e f53d 1c7d 81bd 81ae 9c3d
00000150: 8084 ad3e 0850 8cbc 7d35 88bd a031 e73d
00000160: 52b6 653d d800 7f3d cfc6 92bd 4cd4 6cbe
00000170: 9c6c 163e 841a 4e3e 7fd8 293d bfb7 e53c
00000180: 7060 2d3d 1247 0e3d 20cb a53d 7a89 0c3e
00000190: 4f12 823e 0704 bbbd 5536 edbd 50d7 9bbc
000001a0: 7487 adbe 7678 e2bd f57b cd3b 4c89 58be
000001b0: b04d 903e 4d60 6d3f bc29 943e 6a31 393e
000001c0: 30b5 063f a468 aebe 05f4 2c3e cc39 aa3e
000001d0: eafc 59be e1e5 953e 8a82 713d 443c 923d
000001e0: b033 0e3c 498e 0a3e d8b9 c33d 503f d1bd
000001f0: 2ccd afbb 1500 b53c e80d 263f a26e b93e
00000200: b828 a43d 00d2 2f3e bced b83d 7846 893d
00000210: 8fc7 223d 4dd7 4c3e c2f0 d5bd 4c07 04be
00000220: 9a3c 883e 270f 6cbd e710 a8be 45c5 be3e
00000230: 15fc 3b3e 2845 02be f1eb 3a3d fe26 f13d
00000240: da55 b6bd 54f2 e5bc 0861 debd 5321 44be
00000250: b561 9abe 97f0 5dbd fd14 fd3d f23f 88be
00000260: 5b7f 783e b6e3 0c3d 5616 893d 1e33 8b3d
00000270: 7f8f 9c3d 8cc6 2abd 5c51 063e 438b cabe
00000280: 1079 a83d 48fb 93be d4c4 8bbc 4ccf 813c
00000290: 40f2 413d f4ba 87be 692a 20be 94ad 5fbe
000002a0: 6872 ddbe d794 62be 6e52 74be 98f7 fe3c
000002b0: 637d afbd ffdb 5d3d 0c52 4c3e c395 953c
000002c0: 245b a73e 1bef 923e a40e 1fbe d055 a33e
000002d0: 8e8b 4fbc 0385 873d 8ef5 c53c 0965 013e
000002e0: 9c27 d93d cc1d 173e 1816 e43e c36a cc3e
000002f0: 3a17 823e 8e29 903d 0475 0b3c a02d 06bd
00000300: c87f 5a3d 6290 143e 8a40 f83d 5480 4f3e
00000310: c845 b33e 1742 873e fb79 873c fc0a 703d
00000320: 1652 803d fa10 123e d188 f63c 37a9 ffbd
00000330: b0e0 2cbe f818 b4be 51ae ec3d 3403 39be
00000340: b8aa c03e 913c 4c3e 062d ecbd 9c13 c4bd
00000350: e1f5 54be 2281 0abe 041d 0c3f b28f 403c
00000360: 53b0 3fbe 81c4 46bd 5dc1 bbbe 1304 013f
00000370: e0ec 3fbc 1489 56be 0382 e43e 8bd3 ac3e
00000380: 9d24 ca39 9f08 9a3a 691e 0f3d 57cb 75bc
00000390: f0e8 e53d 8bfb b03d 5421 c83d 614d c23e
000003a0: 493b 553e 31ce c13e 6da1 68bd 335d 1fbc
000003b0: 1956 a4bc 67f4 6e3c f207 91bb c35b d7bd
000003c0: 0a66 723d 22d7 8dbd 55e6 373d 89c8 e3bc
000003d0: 148e 03bc 721d 343d 6f54 163e 447f 933d
000003e0: 612c 373e 5cf5 823e 9c8d 793d c699 9c3e
000003f0: c3ca 85bd fdf8 d3bc 5031 83bd 5549 9fbd

module.refine_spn.1.weight f4 [8, 1, 3, 3]
-0.12383754 0.0014313502 -0.030132053 -0.044521563 -0.09486852 -0.09237337 0.24435772 -0.1984702
0.055603985 -0.15811409 -0.010466433 -0.04111651 0.19260417 -0.38644466 0.051879317 0.16912252
0.13939068 0.039916363 -0.12894046 -0.086542085 0.12491878 -0.10459781 -0.096953295 0.08727893
0.045083653 0.0033444965 0.24987431 -0.026006164 0.03600604 0.10977734 -0.060793545 0.25457382
0.1120814 0.04693345 0.23851342 -0.2726246 -0.050612483 -0.15152362 -0.20440266 -0.20988685
0.20387363 -0.22726053 0.17053643 0.035846107 -0.22864257 -0.23671694 -0.14225498 -0.23726764
-0.13385688 0.15187986 0.011268721 0.24801433 0.2807128 -0.20130189 0.12566614 0.050721258
0.15151308 0.0057462645 0.051935244 -0.08799635 -0.21443532 -0.17826061 -0.087250166 -0.070862584
-0.1840671 0.19125412 0.12769213 -0.10446124 0.12845628 -0.05788314 -0.09039277 0.1380689
00000000: 899e fdbd 259c bb3a 7fd7 f6bc 3e5c 36bd
00000010: 6d4a c2bd 402e bdbd e938 7a3e c63b 4bbe
00000020: 01c1 633d a9e8 21be 677b 2bbc c969 28bd
00000030: 073a 453e 13dc c5be 687f 543d 742e 2d3e
00000040: 6ebc 0e3e 577f 233d f808 04be fa3c b1bd
00000050: 6bd5 ff3d 6037 d6bd 738f c6bd 4cbf b23d
00000060: a3a9 383d 572f 5b3b 0ddf 7f3e e10a d5bc
00000070: 127b 133d f1d2 e03d a702 79bd 8057 823e
00000080: ef8a e53d 4a3d 403d dd3c 743e 7495 8bbe
00000090: 094f 4fbd 0229 1bbe ee4e 51be 94ec 56be
000000a0: 40c4 503e fcb6 68be 1aa1 2e3e 5ed3 123d
000000b0: 4721 6abe ed65 72be 4aab 11be 4af6 72be
000000c0: c711 09be 6586 1b3e 71a0 383c 78f7 7d3e
000000d0: 97b9 8f3e 1522 4ebe a0ae 003e 18c1 4f3d
000000e0: 3f26 1b3e 294b bc3b 0dba 543d 6e37 b4bd
000000f0: ef94 5bbe f389 36be 37b0 b2bd 6720 91bd
00000100: 167c 3cbe 1fd8 433e bac1 023e c6ef d5bd
00000110: 0b8a 033e df16 6dbd d81f b9bd ef61 0d3e

module.refine_spn.2.weight f4 [1, 8, 3, 3]
-0.20257808 -0.6354214 0.7235733 0.0035849677 -0.26968792 0.065638125 0.18935408 -0.49240497
0.6135378 -0.24839894 0.19582252 0.7261605 0.27780423 -0.72417235 -0.047722235 0.44728798
-0.6726416 0.10302816 -0.56068146 -0.39912242 0.41848737 -0.248933 -0.4484624 0.4526991
0.19138736 0.31163946 0.31083965 -0.3682181 0.23459128 -0.09791327 -0.062442325 0.7754781
-0.051778123 0.77326417 -0.8089885 0.25966334 0.2821173 -0.17042516 0.0637127 0.41444528
-0.508276 0.15202917 -0.9880786 -0.31867588 -0.3169837 -0.31626523 -0.15535636 -0.3441983
0.5712675 -0.14715333 0.18229301 0.7975922 -0.183749 0.12677194 0.32461798 -0.4246477
-0.39823055 -0.4020454 0.38911703 -0.10023733 0.00095707225 0.8803894 0.16479716 -0.1660391
0.74573755 0.18283716 0.39544374 -0.15300867 -0.43014944 -0.19312263 -0.20350438 -0.12457922
00000000: a170 4fbe faaa 22bf 1a3c 393f c7f1 6a3b
00000010: 8914 8abe 486d 863d 09e6 413e 811c fcbe
00000020: d010 1d3f 4b5c 7ebe b385 483e a8e5 393f
00000030: 5b3c 8e3e 5c63 39bf 6478 43bd ee02 e53e
00000040: 3d32 2cbf 6e00 d33d d288 0fbf c659 ccbe
00000050: fa43 d63e 4be8 7ebe dd9c e5be 2dc8 e73e
00000060: 0cfb 433e 358f 9f3e 6026 9f3e 1587 bcbe
00000070: b238 703e c186 c8bd 86c3 7fbd bc85 463f
00000080: 4c15 54bd a4f4 453f df19 4fbf 98f2 843e
00000090: ae71 903e ef83 2ebe ce7b 823d 2c32 d43e
000000a0: 601e 02bf 89ad 1b3e b8f2 7cbf 7c29 a3be
000000b0: b04b a2be 84ed a1be bd15 1fbe c23a b0be
000000c0: 963e 123f 5daf 16be 05ab 3a3e 012f 4c3f
000000d0: b328 3cbe 81d0 013e 5434 a63e 6c6b d9be
000000e0: e0e4 cbbe e5d8 cdbe 593a c73e 3b49 cdbd
000000f0: 08e4 7a3a 3361 613f 96c0 283e 2706 2abe
00000100: a8e8 3e3f aa39 3b3e 9a77 ca3e 4eae 1cbe
00000110: 8c3c dcbe f0c1 45be 7463 50be 6423 ffbd

module.feature_extraction.block0.0.0.weight f4 [1, 3, 3, 3]
-0.37451673 -0.016910307 0.2715926 0.19296531 0.23980586 0.24275094 0.6096389 0.4751339
0.0688275 1.768958 1.1552268 0.33753195 0.20459105 0.5296945 0.6898251 0.3475939
0.57899433 0.47572297 -0.07179856 0.13603798 0.13384187 0.33759147 0.54940957 0.20524204
0.1959714 -0.033492077 0.2516251
00000000: a8c0 bfbe 7c87 8abc 2f0e 8b3e b398 453e
00000010: ab8f 753e b493 783e 4c11 1c3f c044 f33e
00000020: 6ff5 8c3d 376d e23f 79de 933f fdd0 ac3e
00000030: 5180 513e 0f9a 073f 6198 303f d4f7 b13e
00000040: f938 143f f691 f33e 200b 93bd 8a4d 0b3e
00000050: d80d 093e cad8 ac3e 1ba6 0c3f f82a 523e
00000060: baac 483e fd2e 09bd 01d5 803e

module.feature_extraction.block0.0.1.2.weight f4 [1, 1, 3, 3]
0.5928862 -0.23730648 0.6371408 0.5441939 -0.34702015 0.5223713 0.58057886 -0.17373195
0.3931359
00000000: 64c7 173f 7800 73be a91b 233f 4b50 0b3f
00000010: a0ac b1be 20ba 053f d1a0 143f cae6 31be
00000020: 1c49 c93e

module.feature_extraction.block0.1.1.2.weight f4 [2, 1, 3, 3]
1.1622154 0.12314895 0.07897571 -0.23779798 -0.19312179 -0.0782924 -0.5571042 -0.36806265
0.039553843 -0.060887065 0.2519718 -0.17751949 0.023561182 1.5013632 -0.28329304 -0.09970097
-0.16857082 0.07751552
00000000: 79c3 943f 8435 fc3d 04be a13d 5081 73be
00000010: b8c1 45be c457 a0bd 619e 0ebf b572 bcbe
00000020: 3603 223d b764 79bd 7302 813e abc7 35be
00000030: 6103 c13c ab2c c03f c90b 91be 0630 ccbd
00000040: d49d 2cbe 75c0 9e3d

module.feature_extraction.block0.1.2.0.weight f4 [2]
0.6706219 0.5640395
00000000: e0ad 2b3f e564 103f

module.feature_extraction.block0.1.2.0.bias f4 [2]
0.10381155 1.0004874
00000000: 269b d43d f90f 803f

module.feature_extraction.block0.1.2.0.running_mean f4 [2]
-0.038401928 0.83678496
00000000: 574b 1dbd 8a37 563f

module.feature_extraction.block0.1.2.0.running_var f4 [2]
0.075600214 0.12271804
00000000: 49d4 9a3d 9953 fb3d

module.feature_extraction.block0.1.2.2.weight f4 [2, 2, 3, 3]
0.18637225 -0.07503326 0.2531268 -0.13823053 -0.29155377 -0.06628269 -0.5133659 -0.5653916
-0.105307445 0.083056435 -0.30027163 -0.3355222 -1.0454729 -1.7446734 -0.49862 -0.1380902
-0.17347857 -0.008214397 -0.04403934 0.033321064 -0.04905626 0.1338961 0.31092727 0.071194984
0.39684033 0.83064514 0.40121982 -0.16631609 -0.08623526 0.06282415 1.1675084 0.6034715
0.03765283 -0.45753506 -0.30326888 0.009020893
00000000: 5ed8 3e3e 0aab 99bd d699 813e 4e8c 0dbe
00000010: 8946 95be 38bf 87bd f36b 03bf 81bd 10bf
00000020: 6eab d7bd 7e19 aa3d 34bd 99be 91c9 abbe
00000030: 0ed2 85bf 7551 dfbf 1f4b ffbe 8467 0dbe
00000040: 5ea4 31be ae95 06bc 9862 34bd ab7b 083d
00000050: 38ef 48bd 0f1c 093e dc31 9f3e adce 913d
00000060: a82e cb3e 29a5 543f af6c cd3e c44e 2abe
00000070: 1d9c b0bd f3a9 803d ea70 953f 1c7d 1a3f
00000080: db39 1a3d 0942 eabe 0f46 9bbe 5ecc 133c

module.feature_extraction.blocks.0.1.0.weight f4 [2]
0.41092515 0.49500266
00000000: c864 d23e fd70 fd3e

module.feature_extraction.blocks.0.1.0.bias f4 [2]
1.064975 0.85271966
00000000: 1a51 883f d64b 5a3f

module.feature_extraction.blocks.0.1.0.running_mean f4 [2]
-3.9818473 1.7690096
00000000: 96d6 7ec0 e86e e23f

module.feature_extraction.blocks.0.1.0.running_var f4 [2]
4.8947377 1.6164416
00000000: b1a1 9c40 8fe7 ce3f

module.feature_extraction.blocks.0.1.2.weight f4 [4, 2, 3, 3]
0.1373966 0.16674823 0.111574315 0.34002453 0.1377809 0.18215007 -0.3024925 0.51581925
-0.30798578 -0.13135602 -0.021106463 -0.045801077 0.369903 1.960063 0.07554092 -0.004455405
0.1724422 0.092229255 0.35773626 -0.36515713 -0.09057624 -1.1874193 -2.071531 0.07138652
0.3739197 -0.17377897 -0.04543219 -0.020753684 0.108833954 -0.08361234 0.025131442 0.19470212
-0.07277386 0.00435229 -0.049822014 -0.05923965 0.023662921 -0.16059244 0.08015633 0.3505476
0.32757303 -0.05267159 -0.35490155 -0.65245515 -0.035013504 0.020816283 -0.03256573 0.0082040755
-0.2420396 -1.6335552 -0.017775672 -0.04424913 -0.07141552 0.046857968 -0.06545233 -0.12647818
0.15820314 -0.18754868 -0.6173667 -0.61730844 0.1531403 0.88831425 0.3487436 -0.014190534
-0.04341004 -0.05070572 -0.087459154 0.61016977 0.39589965 -0.030715192 -0.1770127 -0.26327255
00000000: b2b1 0c3e 0cc0 2a3e 1381 e43d b217 ae3e
00000010: 7016 0d3e 8c85 3a3e 4ce0 9abe bb0c 043f
00000020: 50b0 9dbe 3182 06be 76e7 acbc e999 3bbd
00000030: ed63 bd3e 58e3 fa3f 33b5 9a3d a5fe 91bb
00000040: b094 303e b1e2 bc3d 3529 b73e e0f5 babe
00000050: 0980 b9bd 5bfd 97bf f793 04c0 1933 923d
00000060: 6772 bf3e 1df3 31be 1b17 3abd a103 aabc
00000070: 56e4 de3d f23c abbd 74e0 cd3c fe5f 473e
00000080: 760a 95bd a89d 8e3b 2b12 4cbd 46a5 72bd
00000090: bed8 c13c 5872 24be 0029 a43d fa7a b33e
000000a0: a7b7 a73e 2abe 57bd a8b5 b5be 4d07 27bf
000000b0: 526a 0fbd e986 aa3c a563 05bd 636a 063c
000000c0: 3bd9 77be 5618 d1bf 499e 91bc 933e 35bd
000000d0: 4d42 92bd 24ee 3f3d df0b 86bd 7f83 01be
000000e0: 0100 223e c30c 40be be0b 1ebf ed07 1ebf
000000f0: d0d0 1c3e 9068 633f 858e b23e 6a7f 68bc
00000100: bace 31bd cdb0 4fbd c91d b3bd 1634 1c3f
00000110: 5cb3 ca3e 6d9e fbbc d142 35be a9cb 86be

module.feature_extraction.blocks.0.2.0.weight f4 [4]
0.43129984 0.78927356 1.4068068 0.55667144
00000000: 55d3 dc3e d50d 4a3f 3f12 b43f 0582 0e3f

module.feature_extraction.blocks.0.2.0.bias f4 [4]
0.3812242 1.3625275 -0.4115289 0.20547204
00000000: d12f c33e 4d67 ae3f eab3 d2be 4367 523e

module.feature_extraction.blocks.0.2.0.running_mean f4 [4]
3.142159 -3.2874634 -2.141586 0.20121725
00000000: 2219 4940 cd65 52c0 bf0f 09c0 e50b 4e3e

module.feature_extraction.blocks.0.2.0.running_var f4 [4]
0.9893438 1.645149 0.92912257 0.45348892
00000000: a345 7d3f 3e94 d23f fada 6d3f b32f e83e

module.feature_extraction.blocks.0.2.2.weight f4 [4, 4, 3, 3]
0.102126375 -0.2620935 0.3432602 -0.21334675 -0.45890936 -0.11310744 0.05244428 -0.08151963
0.09076793 0.10743421 -0.37435645 -0.42346123 -0.07746303 0.5105595 0.48299065 0.05600681
0.13872278 0.027094355 0.7934343 1.2615407 0.9012826 -0.013700247 -0.18278813 -0.14939524
-0.018790659 -0.046038043 -0.037908986 -1.1341295 -1.4756199 -0.41213107 0.13992654 -0.082087256
0.0977854 0.05022567 -0.06620854 -0.034600608 -0.4462684 -0.7898743 -0.32592353 0.034050122
-0.40405852 -0.20693523 0.014740836 -0.037560266 -0.1798767 0.06116634 0.066920415 0.09209301
-0.09030549 -1.7374506 -0.31618094 -0.2867677 -1.1250974 -0.18190108 0.10166416 0.22719346
0.10849041 0.18542886 0.5664603 0.24698082 -0.061308943 -0.042223845 0.028807031 -0.1556449
-0.20308042 0.05247316 -0.3251941 -0.26346856 0.092427455 0.21557078 0.12419227 -0.015659135
0.07337032 0.44067442 0.30374527 -0.38641128 -0.9038004 -0.24105318 -0.061919328 -0.023189345
0.07664704 -0.09131406 0.36923546 -0.2070751 0.36928028 1.6154991 0.67984045 0.3337158
0.46679938 -0.00031265893 -0.22572064 -0.55671203 0.011533636 -0.43414426 -0.97188985 -0.69916284
-0.101526275 -0.19718811 -0.086271785 -0.02125828 -0.24708413 0.017430201 0.31616023 0.35238963
0.09064968 -0.0052852966 -0.000117907206 -0.0036732845 0.013728846 0.77595425 -0.15899298 0.313467
0.3384831 0.29032964 -0.018520787 -0.048670225 -0.0794777 -0.1445971 0.30423358 0.49004245
0.052032538 -1.2074368 -0.7697002 -0.12438756 -0.42805827 0.16334191 -0.4564535 -1.4952209
-0.5506129 0.15106882 0.39707333 0.15322435 0.046325393 -0.011036044 0.017838677 0.45207432
0.56834793 0.04781813 -0.2026199 -0.21474849 -0.055265833 0.065923214 -0.070165545 0.006519961
00000000: a227 d13d 1f31 86be cdbf af3e 9277 5abe
00000010: 2bf6 eabe e0a4 e7bd d0cf 563d c4f3 a6bd
00000020: 89e4 b93d 7806 dc3d a6ab bfbe e9cf d8be
00000030: f0a4 9ebd 07b4 023f 8d4a f73e 6667 653d
00000040: 580d 0e3e fbf4 dd3c 831e 4b3f 2a7a a13f
00000050: 75ba 663f 0077 60bc d02c 3bbe 11fb 18be
00000060: deee 99bc 6392 3cbd 7446 1bbd 282b 91bf
00000070: 1de1 bcbf d802 d3be e748 0f3e 5d1d a8bd
00000080: b643 c83d 6fb9 4d3d 5898 87bd 5eb9 0dbd
00000090: 4b7d e4be 3435 4abf 73df a6be 2478 0b3d
000000a0: c2e0 cebe d4e6 53be 8c83 713c cbd8 19bd
000000b0: 9931 38be 8e89 7a3d 920d 893d 439b bc3d
000000c0: 16f2 b8bd c864 debf 78e2 a1be 37d3 92be
000000d0: 3103 90bf 4744 3abe 4d35 d03d 67a5 683e
000000e0: 3830 de3d 10e1 3d3e 8b03 113f 8ae8 7c3e
000000f0: 161f 7bbd e9f2 2cbd b9fc eb3c 6061 1fbe
00000100: 50f4 4fbe 19ee 563d d77f a6be 5ae5 86be
00000110: 9b4a bd3d 96be 5c3e 8458 fe3d 9647 80bc
00000120: 2e43 963d 14a0 e13e 8084 9b3e b3d7 c5be
00000130: 775f 67bf a5d6 76be 1f9f 7dbd 95f7 bdbc
00000140: 20f9 9c3d de02 bbbd 6e0c bd3e 7f0b 54be
00000150: 4e12 bd3e adc8 ce3f 060a 2e3f ccdc aa3e
00000160: 5400 ef3e 5fec a3b9 5023 67be ae84 0ebf
00000170: 93f7 3c3c 2848 debe c6cd 78bf 56fc 32bf
00000180: 02ed cfbd aeeb 49be 43af b0bd d825 aebc
00000190: 9f03 7dbe c8c9 8e3c c1df a13e 6a6c b43e
000001a0: 8aa6 b93d 4830 adbb f344 f7b8 7dbb 70bb
000001b0: f4ee 603c f0a4 463f 0ecf 22be bf7e a03e
000001c0: a84d ad3e 16a6 943e e8b8 97bc 6e5a 47bd
000001d0: 34c5 a2bd 4311 14be 81c4 9b3e d8e6 fa3e
000001e0: 1220 553d 4a8d 9abf 130b 45bf e8be febd
000001f0: 742a dbbe 1a43 273e 46b4 e9be 6663 bfbf
00000200: f8f4 0cbf c9b1 1a3e 324d cb3e d8e6 1c3e
00000210: b2bf 3d3d 86d0 34bc 6b22 923c 4976 e73e
00000220: 407f 113f f2dc 433d 977b 4fbe 07e7 5bbe
00000230: 6d5e 62bd c002 873d f4b2 8fbd 66a5 d53b

module.feature_extraction.blocks.1.1.0.weight f4 [4]
0.3876101 0.3887695 0.50541055 0.5252924
00000000: d574 c63e cc0c c73e 9662 013f 9079 063f

module.feature_extraction.blocks.1.1.0.bias f4 [4]
0.7130567 1.0172545 1.1771421 1.1067779
00000000: e28a 363f 6535 823f 98ac 963f e6aa 8d3f

module.feature_extraction.blocks.1.1.0.running_mean f4 [4]
1.3712978 -4.6882176 4.6344595 -0.8922255
00000000: b086 af3f e105 96c0 7e4d 9440 e468 64bf

module.feature_extraction.blocks.1.1.0.running_var f4 [4]
2.157402 7.608956 8.791788 3.4144611
00000000: e012 0a40 917c f340 2aab 0c41 8886 5a40

module.feature_extraction.blocks.1.1.2.weight f4 [8, 4, 3, 3]
-0.07668985 -0.096062034 -0.015197311 -0.052183248 0.951066 0.010547961 0.061522026 -0.01208699
-0.020002626 0.03258632 0.35374856 -0.10910297 0.092035815 -1.7282686 0.12353825 -0.048390586
-0.21894185 0.05994408 -0.16731451 -0.67868316 -0.073029146 -0.29931682 1.3363721 -0.23487447
-0.00370655 0.073150456 -0.048267454 -0.023211932 0.24201125 0.09319839 0.12962142 -0.5373698
0.06171555 0.0414768 0.053033262 -0.030388929 -0.0184173 -0.009482787 -0.009069124 -0.0049890736
-0.8137288 -0.030815393 -0.029841956 -0.06408188 -0.13349696 0.0228819 0.30102903 0.030232199
-0.13014923 0.32927257 0.12096745 -0.10160773 0.0972612 -0.27683097 -0.15249968 -0.15255815
-0.209311 0.22873797 -0.44029492 0.09131698 -0.038857147 0.06825986 0.15127014 0.000975615
-0.052106753 -0.040746123 0.157763 -2.4301956 0.17368117 -0.0073880595 -0.30621812 0.11371561
-0.00084016134 -0.121653765 -0.10242221 0.124039836 -0.40016603 -0.028585255 -0.05382274 -0.08118509
0.030067813 -0.20401496 0.5907657 0.17478088 0.30774054 -1.9409127 -0.2509881 -0.009988839
-0.038922943 0.051088758 0.03992259 -0.5390321 -0.27089143 -0.12053436 1.0322587 0.21460843
0.0055357534 0.06898215 -0.05665678 -0.05993444 0.025644282 0.020434119 -0.16337416 1.2758334
0.2362769 -0.040806726 -0.10476942 -0.021766065 -0.03252552 -0.1783661 -0.07140312 -0.24815121
-1.4175757 -0.16702336 0.00029581974 0.08360449 -0.029641654 0.40092665 -0.41072443 0.08184649
0.18411992 -0.2050623 -0.22435337 0.03843923 -0.0042117396 0.10301219 0.01882672 0.35067418
0.024995398 -0.32864478 -1.0625077 -0.08508105 0.02793762 -0.030001467 0.017852874 -0.044162504
-0.41583872 0.039718263 -0.3974694 -1.0676591 -0.17928052 0.036273714 -0.30964205 0.0013499357
0.05314336 -0.0176014 -0.10485779 -0.6533439 -1.922018 0.20180437 -0.173059 -0.13315088
-0.09126377 -0.10684356 -0.43337333 -0.12690565 0.25722176 -0.15368655 0.38117427 0.123121984
-0.10022704 -0.01909743 0.36432928 0.23448083 0.0967674 -0.03812501 -0.3644428 -0.11246858
-0.1026592 -0.06971331 -0.082124695 -0.10101448 -0.60190004 -0.32311657 -0.31321496 -0.27753875
-0.23046711 -0.009362998 -0.11224867 0.104561105 -0.042423617 -0.08995533 -0.01927003 0.14493197
-1.0890675 -0.18926571 0.030432679 0.1024064 0.023915885 0.06356974 -0.4945321 -0.0029429742
-0.14046663 0.7891345 0.17796798 0.13572353 -0.060583655 0.064663865 0.18802717 0.13163616
0.35560513 0.06007756 -1.7703344 -0.39261076 -0.068169236 -0.60511684 -0.017290264 0.0027743303
-0.06513528 -0.07423133 -0.18087721 -0.0076828822 -0.16317387 -0.0955174 -0.47921 -0.08648219
-0.08203126 -0.18105601 -0.014803306 0.23938462 0.035814773 0.029429983 -0.08891936 -0.07908349
-0.019451156 -0.13492717 -0.26462746 -0.14297011 0.097941086 1.1471759 0.048712187 -0.13336192
0.22182314 -0.104628354 -0.19029048 -0.9330131 -0.04683962 0.073202975 -0.87987924 0.22736372
0.17615198 -0.34307754 0.112536855 -0.03619424 0.15358658 -0.016971879 -0.120967954 1.9717613
-0.15713097 -0.06350447 -0.1076172 0.009727378 -0.07874471 0.27805662 0.08541364 0.017263005
00000000: 910f 9dbd 2cbc c4bd 24fe 78bc 1abe 55bd
00000010: 1079 733f 5bd1 2c3c 85fe 7b3d 8308 46bc
00000020: 8cdc a3bc 3c79 053d 881e b53e 6171 dfbd
00000030: 467d bc3d e837 ddbf 9f01 fd3d 3535 46bd
00000040: 4b32 60be ec87 753d 7f54 2bbe 2ebe 2dbf
00000050: 4e90 95bd 0e40 99be 3e0e ab3f ef82 70be
00000060: 97e9 72bb e8cf 953d 18b4 45bd f326 bebc
00000070: ccd1 773e ccde be3d 7abb 043e 1191 09bf
00000080: 72c9 7c3d 94e3 293d 6839 593d 34f2 f8bc
00000090: e1df 96bc b15d 1bbc aa96 14bc 627b a3bb
000000a0: 8850 50bf 9070 fcbc 1e77 f4bc 5c3d 83bd
000000b0: 6db3 08be d372 bb3c 7a20 9a3e 84a9 f73c
000000c0: d745 05be 6a96 a83e c8bd f73d b717 d0bd
000000d0: e130 c73d cabc 8dbe e028 1cbe 3438 1cbe
000000e0: 9f55 56be 493a 6a3e 566e e1be 6604 bb3d
000000f0: ac28 1fbd d3cb 8b3d 8fe6 1a3e 6ac0 7f3a
00000100: e46d 55bd 68e5 26bd a08c 213e 5388 1bc0
00000110: 7ad9 313e 8917 f2bb 9fc8 9cbe bbe3 e83d
00000120: 463e 5cba 9c25 f9bd bcc2 d1bd 9908 fe3d
00000130: 90e2 ccbe a02b eabc 3c75 5cbd 5e44 a6bd
00000140: c650 f63c 4ce9 50be 6c3c 173f c2f9 323e
00000150: 2b90 9d3e d46f f8bf 8381 80be 3aa8 23bc
00000160: aa6d 1fbd 7242 513d df85 233d 02fe 09bf
00000170: 48b2 8abe b8da f6bd 0e21 843f 50c2 5b3e
00000180: 4465 b53b 8346 8d3d f110 68bd d17d 75bd
00000190: f513 d23c 7465 a73c 8e4b 27be 824e a33f
000001a0: 92f2 713e f424 27bd 5a91 d6bd bf4e b2bc
000001b0: 7b39 05bd 9aa5 36be cd3b 92bd 5a1b 7ebe
000001c0: 1f73 b5bf 2c08 2bbe 4118 9b39 d538 ab3d
000001d0: 0ed3 f2bc 4246 cd3e 794a d2be 229f a73d
000001e0: ef89 3c3e dafb 51be e4bc 65be 7472 1d3d
000001f0: a202 8abb 0ef8 d23d 7e3a 9a3c 918b b33e
00000200: 26c3 cc3c 2144 a8be 4100 88bf f93e aebd
00000210: 70dd e43c a3c5 f5bc 3140 923c bee3 34bd
00000220: d0e8 d4be 9eaf 223d 1c81 cbbe 0ea9 88bf
00000230: 5095 37be bf93 143d 6789 9ebe 53f0 b03a
00000240: daac 593d d030 90bc aebf d6bd 8c41 27bf
00000250: b004 f6bf cea5 4e3e 6136 31be b458 08be
00000260: 80e8 babd ccd0 dabd 1ce3 ddbe 8ef3 01be
00000270: 92b2 833e 0260 1dbe 4629 c33e 6127 fc3d
00000280: d643 cdbd 3772 9cbc 5e89 ba3e be1b 703e
00000290: fd2d c63d f828 1cbd 3f98 babe ed55 e6bd
000002a0: fd3e d2bd dac5 8ebd fe30 a8bd aee0 cebd
000002b0: 1f16 1abf 896f a5be b65d a0be 8f19 8ebe
000002c0: 92ff 6bbe 4367 19bc a1e2 e5bd 2224 d63d
000002d0: 63c4 2dbd 803a b8bd 2fdc 9dbc 0c69 143e
000002e0: 9066 8bbf dfce 41be f44d f93c 72ba d13d
000002f0: 3feb c33c da30 823d 5033 fdbe eade 40bb
00000300: 7cd6 0fbe b804 4a3f 3d3d 363e 1cfb 0a3e
00000310: 9126 78bd 7d6e 843d 328a 403e a1cb 063e
00000320: e011 b63e e313 763d 519a e2bf 4704 c9be
00000330: 509c 8bbd f0e8 1abf 50a4 8dbc 8ad1 353b
00000340: a565 85bd 9806 98bd e037 39be b0c0 fbbb
00000350: 0d17 27be a09e c3bd 035b f5be 931d b1bd
00000360: 0100 a8bd bf66 39be 9189 72bc 3e21 753e
00000370: 83b2 123d 2617 f13c 5a1b b6bd 86f6 a1bd
00000380: 0858 9fbc 592a 0abe 407d 87be c266 12be
00000390: 5695 c83d a9d6 923f 6e86 473d 0790 08be
000003a0: 9b25 633e 6447 d6bd 82db 42be f2d9 6ebf
000003b0: e7da 3fbd 71eb 953d c43f 61bf 09d2 683e
000003c0: 2f61 343e dca7 afbe b979 e63d 6940 14bd
000003d0: cd45 1d3e 9c08 8bbc 0cbe f7bd ad62 fc3f
000003e0: f1e6 20be a20e 82bd 6866 dcbd 955f 1f3c
000003f0: e844 a1bd 705d 8e3e 59ed ae3d 256b 8d3c

module.feature_extraction.blocks.1.2.0.weight f4 [8]
0.7717471 0.50949055 0.60890776 0.8244932 0.41216758 0.85102123 0.83070445 0.48000374
00000000: 3891 453f f96d 023f 61e1 1b3f fd11 533f
00000010: a107 d33e 87dc 593f 0ca9 543f 0dc3 f53e

module.feature_extraction.blocks.1.2.0.bias f4 [8]
1.5235181 0.7224298 1.3993096 -0.9946829 -0.19336714 -0.7057122 0.7823749 0.78492975
00000000: a402 c33f 29f1 383f 941c b33f 8aa3 7ebf
00000010: 0902 46be 8ea9 34bf b949 483f 28f1 483f

module.feature_extraction.blocks.1.2.0.running_mean f4 [8]
-0.93379164 -3.5333478 -0.00943979 -5.32705 -4.25448 -3.9643764 0.4827992 1.9017991
00000000: f80c 6fbf 5f22 62c0 59a9 1abc 3277 aac0
00000010: b324 88c0 58b8 7dc0 7531 f73e 276e f33f

module.feature_extraction.blocks.1.2.0.running_var f4 [8]
1.04446 1.4071561 0.7090627 1.2118475 1.9693726 2.090583 2.9922798 0.38826096
00000000: deb0 853f b11d b43f 2285 353f d21d 9b3f
00000010: 6714 fc3f 1dcc 0540 8381 3f40 24ca c63e

module.feature_extraction.blocks.1.2.2.weight f4 [8, 8, 3, 3]
-0.0062034903 -0.1899452 -0.045744088 0.08328645 0.6576227 0.11045146 0.09651024 0.060521808
-0.006060738 -0.13668571 0.187215 -0.04748123 0.12871668 1.7765514 0.07083285 0.07322884
0.07135647 -0.0010464061 -0.047622293 0.0022051204 0.050916225 -0.3850185 -1.7311602 0.22149488
0.034197442 0.14948508 -0.14142828 -0.27637276 -0.27012995 -0.12684473 0.10284469 -0.1998262
-0.25228366 -0.059987795 -0.04798277 -0.24396697 -0.18592025 -0.20740259 -0.1610927 0.028091887
-0.056307554 -0.12804379 0.0050423457 -0.103953585 -0.11795762 0.269163 0.32975414 0.20260027
-0.18802342 -0.751708 -0.58747494 -0.02354559 -0.1550033 0.19516449 -0.110379666 0.12610418
-0.047588672 0.22685358 -0.91909647 0.043917492 -0.062740244 0.06005047 0.026505506 0.027837655
0.0520649 -0.09641643 0.05264143 0.42788884 0.18022673 -0.07914458 -0.08337545 0.002474911
0.010511591 0.078979544 -0.030130534 0.027061189 -1.4095675 -0.18533207 -0.044027872 -0.01840847
0.10865702 0.1031569 -0.12984449 0.03299311 -0.0013559267 0.07987371 -0.0011129761 -0.035545044
0.13516895 -0.017120311 -0.113370456 -0.1859836 -0.033371378 0.0021131844 -0.7686841 -0.00042137035
-0.03231771 0.03772267 -0.003707595 -0.87724525 -0.84283495 -0.4832385 0.69843554 0.9392252
0.5807166 0.23457998 0.14554329 -0.03819633 -0.18886286 -0.48607016 -0.30413723 0.033386745
0.08280153 0.024492562 -0.16431983 -0.025013737 0.023378603 -0.0704018 -0.7483492 -0.35256505
0.12548874 1.0082066 0.2279828 -0.14670964 -0.09990883 -0.07754007 -0.14704344 -0.23602593
-0.019664101 0.18819079 -0.026206793 0.12428808 -0.059368957 -0.17725343 -0.008085765 -0.031187424
0.09607275 0.09472474 0.0015014914 -1.0011739 -0.077134244 -0.006446689 -0.040112164 -0.039216816
0.048747476 0.36751518 0.25725853 -0.09408029 2.4984944 0.075166896 0.15576985 -0.30895758
0.034051348 0.01872142 -0.12634237 -0.0068387836 0.07797007 0.043536134 0.040021196 0.060586836
-0.12901416 0.09252041 0.012378392 0.1776886 -0.034845572 -0.08351967 0.978409 -0.15334086
0.108886756 0.07340764 0.33359417 -0.27536616 -0.115072235 0.18700545 0.05450505 0.23242304
0.096793815 -0.12808153 0.10648341 -0.16715258 -0.15537585 -0.5210049 -0.25857857 -0.13257918
-0.45727953 -0.33728737 -0.2513068 -0.27643922 -0.17335992 -0.09294561 0.10293296 0.07739172
0.044004 -0.36662126 0.288904 0.2020113 -0.047054417 0.09632374 -0.068543494 -0.5088561
-0.038563687 -0.1373738 -1.7580969 -0.30749038 -0.06218917 -0.43043151 -0.10782323 0.10762654
0.054651793 0.06929084 0.17533238 -0.30196765 -0.3356402 -0.08622704 0.054638173 -0.040142387
0.035340704 -0.18926378 0.0122758215 0.23830292 1.1339778 0.07619548 -0.05599729 0.10169079
0.08797111 -0.031577952 0.06791749 0.099865675 -0.015445316 -1.1276536 -0.037379313 0.13816479
-0.055065703 0.112098895 0.041634034 -0.29540363 -0.12972364 -0.14143799 -0.75675493 0.05965667
-0.025061982 0.030180419 -0.009536167 0.0772477 0.041501537 0.20886083 0.05882454 -0.7870493
-0.22937675 0.10270656 0.40665147 0.3768452 -0.08071959 -0.2582817 -0.10185129 0.3351263
00000000: a646 cbbb ff80 42be 275e 3bbd 1692 aa3d
00000010: f659 283f 6034 e23d 29a7 c53d b7e5 773d
00000020: 2899 c6bb 57f7 0bbe 4ab5 3f3e ae7b 42bd
00000030: 4ece 033e 0966 e33f d010 913d 01f9 953d
00000040: 5723 923d 9027 89ba 980f 43bd c883 103b
00000050: 888d 503d 2521 c5be a896 ddbf 8ecf 623e
00000060: 9e12 0c3d 9e12 193e 93d2 10be bb80 8dbe
00000070: 794e 8abe 96e3 01be 3da0 d23d 3d9f 4cbe
00000080: 532b 81be c3b5 75bd 9589 44bd 7ad2 79be
00000090: e161 3ebe 5861 54be 7cf5 24be f520 e63c
000000a0: c0a2 66bd e91d 03be 433a a53b 9ee5 d4bd
000000b0: c493 f1bd bccf 893e 89d5 a83e 7276 4f3e
000000c0: 3689 40be ef6f 40bf c264 16bf aee2 c0bc
000000d0: 2fb9 1ebe 33d9 473e bc0e e2bd 7421 013e
000000e0: 57ec 42bd 4e4c 683e e849 6bbf d4e2 333d
000000f0: f57d 80bd 7bf7 753d 1322 d93c cb0b e43c
00000100: 0142 553d fa75 c5bd 8a9e 573d 3f14 db3e
00000110: 5b8d 383e 8e16 a2bd bfc0 aabd 1e32 223b
00000120: cf38 2c3c 07c0 a13d 4fd4 f6bc 6daf dd3c
00000130: b56c b4bf b1c7 3dbe 9256 34bd 5ccd 96bc
00000140: 9287 de3d ed43 d33d f4f5 04be c923 073d
00000150: 5ab9 b1ba d494 a33d 48e1 91ba ae97 11bd
00000160: bb69 0a3e e53f 8cbc c52e e8bd 7c72 3ebe
00000170: 6db0 08bd 5a7d 0a3b 7bc8 44bf 5feb dcb9
00000180: 935f 04bd 1683 1a3d 1ffb 72bb 2593 60bf
00000190: 08c4 57bf 096b f7be accc 323f 1071 703f
000001a0: d8a9 143f bc35 703e 4d09 153e c173 1cbd
000001b0: 4465 41be 30de f8be e0b7 9bbe 8ac0 083d
000001c0: d993 a93d a0a4 c83c 7543 28be 9ce9 ccbc
000001d0: 7c84 bf3c d22e 90bd d093 3fbf 6883 b4be
000001e0: 1f80 003e ea0c 813f 5374 693e 0d3b 16be
000001f0: 009d ccbd 54cd 9ebd 8e92 16be c8b0 71be
00000200: 9c16 a1bc 16b5 403e a1af d6bc c08a fe3d
00000210: dd2c 73bd ec81 35be 287a 04bc c57c ffbc
00000220: cac1 c43d 0bff c13d b1cd c43a 7726 80bf
00000230: 8ff8 9dbd bf3e d3bb a74c 24bd d0a1 20bd
00000240: 6fab 473d f32a bc3e 64b7 833e 2bad c0bd
00000250: 55e7 1f40 1af1 993d 2282 1f3e b02f 9ebe
00000260: 6d79 0b3d aa5d 993c e55f 01be e017 e0bb
00000270: c6ae 9f3d f252 323d 44ed 233d e729 783d
00000280: 4a1c 04be 577b bd3d bdce 4a3c 00f4 353e
00000290: 3bba 0ebd 5c0c abbd 0379 7a3f 6305 1dbe
000002a0: 0500 df3d bf56 963d dbcc aa3e cbfc 8cbe
000002b0: feaa ebbd 5b7e 3f3e b040 5f3d 4e00 6e3e
000002c0: d63b c63d ce27 03be f913 da3d 0c2a 2bbe
000002d0: d91a 1fbe 9460 05bf 6964 84be d6c2 07be
000002e0: 8b20 eabe eeb0 acbe 49ab 80be 7189 8dbe
000002f0: 4385 31be 455a bebd 84ce d23d 8d7f 9e3d
00000300: 8a3d 343d c8b5 bbbe 3aeb 933e 0ddc 4e3e
00000310: 22bc 40bd 6245 c53d 8860 8cbd 6544 02bf
00000320: f5f4 1dbd b8ab 0cbe 5209 e1bf 616f 9dbe
00000330: 12ba 7ebd 8561 dcbe 6dd2 dcbd 4e6b dc3d
00000340: 8fda 5f3d 5be8 8d3d 558a 333e 819b 9abe
00000350: 08d9 abbe cd97 b0bd 47cc 5f3d 586c 24bd
00000360: 6ac1 103d 5dce 41be 8720 493c ae05 743e
00000370: 2f26 913f 600c 9c3d 6a5d 65bd 4343 d03d
00000380: 332a b43d e257 01bd 5318 8b3d 6086 cc3d
00000390: 5a0e 7dbc f456 90bf 0d1b 19bd 127b 0d3e
000003a0: 938c 61bd 1b94 e53d 7388 2a3d 253f 97be
000003b0: 46d6 04be 1fd5 10be b1ba 41bf 8d5a 743d
000003c0: c94e cdbc ed3c f73c 953d 1cbc 0b34 9e3d
000003d0: 84fd 293d 9ddf 553e 00f2 703d 107c 49bf
000003e0: bde1 6abe d157 d23d 9f34 d03e dbf1 c03e
000003f0: 5050 a5bd 803d 84be 6997 d0bd ad95 ab3e

module.feature_extraction.upblocks.0.conv.0.0.weight f4 [12]
0.35658878 0.8906205 0.63147056 0.6676107 0.07550856 0.10321091 0.15598765 0.08428593
0.15373677 0.058996 0.017685572 0.36608008
00000000: ce92 b63e b5ff 633f 0ea8 213f 89e8 2a3f
00000010: 3ba4 9a3d 3e60 d33d 3abb 1f3e 1a9e ac3d
00000020: 2c6d 1d3e caa5 713d 55e1 903c d96e bb3e
