checkpoint/kitti2015_ck_new/checkpoint.tar (torch_old, 592121 bytes, 300 tensors)

module.refine_spn.0.0.weight f4 [16, 3, 3, 3]
000000 b7 60 9a be b3 90 ee bd b5 66 32 3e 29 e9 b5 bb
       -0.30151913 -0.11648693 0.17421992 -0.0055514765
000010 db 6d c8 3e 33 32 6d 3e 38 7a 18 bf af 08 c8 bd
       0.39146313 0.2316368 -0.5956149 -0.09767281
000020 00 16 46 3e f8 ff aa 3e 40 24 46 3e 00 e1 e3 be
       0.1934433 0.33398414 0.19349766 -0.445076
000030 fe 86 0a 3e 9b 55 1b 3f 48 4c 88 bd 9f e2 85 be
       0.13528058 0.606775 -0.066551745 -0.2614946
000040 01 5f 8a bd 1e 28 ba 3c 37 15 b0 3d 73 37 67 be
       -0.06756402 0.022724207 0.085977964 -0.22579746
000050 32 a4 ad be f4 6d d5 3a 7d 30 5f 3e 74 4c 13 be
       -0.33914334 0.0016283379 0.2179584 -0.14384633
000060 36 33 16 bd 7b 7f 14 3e 15 59 0c bd 56 1f 93 3c
       -0.036669932 0.14501755 -0.034264643 0.017959278
000070 ee 38 99 3d de 10 de bc 9a 6f 0d bc 5e 31 80 3e
       0.074815616 -0.027107652 -0.008632565 0.25037664
000080 80 72 a4 3e ee 72 3f 3d 59 cf 06 bf 55 90 8a be
       0.32118607 0.046740465 -0.5266014 -0.27063242
000090 bd 81 01 be f8 69 2a 3e 1c 13 6a 3e 72 53 7d 3e
       -0.12647147 0.16641986 0.22858852 0.24738863
0000a0 0f 2e 0e 3e 00 03 4b 3e 5e 97 dc bc f6 9c ac be
       0.13884757 0.19825363 -0.026927646 -0.33713502
0000b0 8d 0f d3 be 64 58 ee bd 69 18 0c 3d ac 48 64 3d
       -0.41222802 -0.11637953 0.034202967 0.055733368
0000c0 d1 c2 fb 3d 73 9d ba 3e e7 2b c9 3e 8d 24 75 bd
       0.12293018 0.3644825 0.39291307 -0.05984931
0000d0 5f 6f e2 be 7d c9 1f be b8 1a 8a 3e 1b 48 a0 3e
       -0.44225594 -0.15604205 0.2697351 0.31305012
0000e0 37 2c 40 3d e0 79 de 3d c9 ed 01 3e f7 b4 b7 bd
       0.046917167 0.108630896 0.12688364 -0.08970063
0000f0 fc 32 67 3b da f4 c9 be ac 09 03 bf 1f 8c 36 be
       0.0035278192 -0.3944462 -0.51186633 -0.1782689
000100 6b a3 9b be cb 86 af 3e 91 f7 e6 be 13 56 3c be
       -0.30398116 0.34282526 -0.45110753 -0.1839221
000110 6b 76 f9 3e da ef b8 be 5f 1c de 3d c5 98 eb 3e
       0.48723158 -0.36120492 0.10845255 0.4601499
000120 e6 cd 75 be 2f 5b 78 bd c2 53 13 bf 7c 3a e9 3e
       -0.24004325 -0.060633834 -0.5754968 0.45552433
000130 47 cb 97 3d fb 15 17 bf 97 0a 13 3f e6 79 ec 3e
       0.07411819 -0.59017915 0.57438034 0.4618675
000140 10 a6 14 3e 0d 0c 6d be da dc 51 3d e4 6e 30 3e
       0.14516473 -0.23149128 0.05123601 0.17229801
000150 81 16 1d 3e d4 d1 f1 be dd 69 e2 3e 3e 11 e5 ba
       0.15340616 -0.472304 0.44221392 -0.0017476452
000160 59 25 26 bd 97 a2 c1 3d 54 fc 0c 3d 44 a5 3b 3e
       -0.04056296 0.0945484 0.034420326 0.18324763
000170 a5 3a ba bd 7a 33 71 3e 4c 2a 1b bf f2 9c 48 3e
       -0.09093217 0.23554793 -0.60611415 0.1959112
000180 f6 ae 4a bd 5b 26 85 be ae 4b 6e 3e a8 cf 85 3d
       -0.049483262 -0.26005825 0.23271057 0.06533748
000190 c1 39 e4 3d 57 5e 9b be 46 47 ff 3e 52 0a c1 be
       0.11143828 -0.30345413 0.49859065 -0.37703186
0001a0 d5 84 e7 bd b9 5f a6 3e 1d 4f be bd d9 cc 2a be
       -0.113046326 0.32494906 -0.092924334 -0.16679706
0001b0 25 3c 8c 3d 8a 4f 84 3e ae 8a 2b 3e ed 78 56 bd
       0.06847409 0.25841933 0.16752121 -0.052361418
0001c0 ad 91 19 bc 96 ca 52 3d 9b fd aa be 96 28 64 be
       -0.009373111 0.051462732 -0.3339661 -0.22281107
0001d0 d9 74 ff bd be 39 cc be 51 cf 01 bf e0 54 a1 be
       -0.12473459 -0.39887804 -0.50706965 -0.31510067
0001e0 4d 5e 08 3e 1e 64 33 bc 8c 41 e5 be 1c ed 2f 3f
       0.13317223 -0.010949163 -0.4477657 0.68721175
0001f0 b8 01 1e 3f 17 a9 e4 3e d5 87 49 3c 6a 62 0c 3f
       0.6172137 0.44660255 0.012300451 0.5483767
000200 44 a5 40 3e 91 c6 54 3e 26 03 31 3c 75 72 c6 3d
       0.18813044 0.20778872 0.010803973 0.096898
000210 55 13 f1 be 91 f7 16 bf 64 7b 56 bb 7d bf 8f be
       -0.47085062 -0.58971506 -0.0032727355 -0.2807578
000220 40 e5 8e be db 2b ef be 33 96 85 3c ed 18 fd bd
       -0.2790928 -0.46713147 0.016306972 -0.1235827
000230 54 2f e7 be 76 62 45 3f 5f c2 66 3f 2a 5a 50 bd
       -0.45153296 0.77103364 0.90140337 -0.050867237
000240 48 8b 94 3d 3d 99 6e 3e c9 62 0e 3f f9 0d a1 be
       0.07253128 0.23300643 0.55619484 -0.31455973
000250 a8 57 62 3d 8a b2 de 3e 95 10 27 bf 43 2b 9d be
       0.055259377 0.4349559 -0.6525968 -0.3069707
000260 ef 2c a7 3d cb 6f 5c 3e 54 d1 39 3d b8 0c cb bd
       0.08162867 0.2152702 0.045365646 -0.09914535
000270 51 f3 bc 3e 61 83 ed 3d 81 ba bb 3c 99 cf 38 be
       0.36904386 0.11597324 0.02291608 -0.18047942
000280 74 f7 20 bf 09 66 1b bd 61 78 22 3e d4 77 2f bd
       -0.62877584 -0.037939105 0.15866233 -0.042838886
000290 9f 30 c3 3c 5e 74 1e be e3 d7 32 3e 61 c1 c4 bd
       0.023826895 -0.15474078 0.17465167 -0.096071966
0002a0 4d 02 8f 3d 53 2c e7 bd 4b c7 03 3e fe bf e8 3c
       0.06982861 -0.11287751 0.12868993 0.028411862
0002b0 2e ea dc bd ff 98 c7 3c 4a f8 00 be cc 89 4c 3e
       -0.10786854 0.024364946 -0.12594715 0.1997444
0002c0 c7 15 aa bc f8 74 04 3e c1 f0 12 be c3 4b 54 bd
       -0.020762337 0.12935245 -0.14349653 -0.051830065
0002d0 3b 5d 6e 3e cc 64 ef bd ff 13 86 3d a2 e5 52 bd
       0.23277752 -0.11689147 0.06546783 -0.051488526
0002e0 03 45 4c 3e 16 f0 c6 bd 9b f0 8d 3b 02 9d 7b be
       0.19948201 -0.097137615 0.004331661 -0.24571612
0002f0 12 5b 90 3e e7 75 41 be 74 6c 2f be 6f f8 0f be
       0.2819448 -0.18892632 -0.17131215 -0.14059614
000300 db 2f 4c 3e 43 b8 96 be 16 22 75 3d 36 06 b8 bb
       0.1994013 -0.29437456 0.05984696 -0.005615975
000310 d8 ae 66 be fe a2 69 bd 49 76 2c 3e 88 17 c8 3e
       -0.22527635 -0.057040207 0.16841997 0.39080453
000320 45 58 ae 3d 12 7b c4 3e f3 0b 2b 3e 05 e0 4f 3d
       0.0851293 0.38375145 0.16703777 0.05075075
000330 1d 80 91 3e 02 9e 55 3e ce 25 d4 3e 97 13 62 be
       0.28418055 0.20861056 0.41435093 -0.22077785
000340 68 f9 04 be 79 6a 17 be 31 4e f4 bb 6d b6 d9 bd
       -0.12985766 -0.1478671 -0.00745561 -0.10630498
000350 94 62 19 be 79 3d 86 be 6f 6b 84 be 30 cb 49 be
       -0.14979011 -0.26218775 -0.25863215 -0.19706416
000360 d8 b1 16 be 92 08 b7 bd ee 9b 0c 3e d6 fb 11 bf
       -0.1471628 -0.089371815 0.13731357 -0.57024896
000370 b8 e4 12 be a1 3f 29 3f 7d fb f1 bd b2 2c 46 3d
       -0.14345062 0.66112715 -0.11815546 0.04838247
000380 a2 90 46 3e 9c 9e cf 3d e4 f7 e8 3c fe d8 8a 3d
       0.1939111 0.10137674 0.028438516 0.06779669
000390 bb 8b e4 be ee f2 08 3d 50 49 a8 3e 40 3a b1 3d
       -0.44637856 0.0334348 0.32868433 0.086536884
0003a0 eb 8a f0 3b e4 d2 9e be 70 1e 76 be 2f 4b 6c be
       0.007340779 -0.31020272 -0.24035048 -0.23075555
0003b0 25 4d 08 3f aa a0 d4 be 1d fc 9d bd d6 71 b9 3e
       0.53242713 -0.41528827 -0.077141024 0.36219662
0003c0 e1 38 64 be 12 08 8e 3e 3e 2e a4 3d b8 f1 0b 3e
       -0.22287323 0.27740532 0.080166325 0.13666427
0003d0 dc 1e 62 3d 8f c2 05 3f 8a 8b 42 be b6 08 9a be
       0.05520521 0.5225 -0.18998542 -0.3008477
0003e0 f2 42 ba 3c 1c f3 38 3d d7 e3 07 3d 69 4a 67 bd
       0.022737 0.045153722 0.03317627 -0.056467447
0003f0 11 f7 2e 3d 31 f8 89 3e 1b cb 9b 3e d8 45 1d be
       0.04271609 0.26947168 0.30428395 -0.15358675

module.refine_spn.0.2.weight f4 [16, 16, 3, 3]
000000 f4 18 19 be 62 45 91 3b a1 96 0b bd 61 89 e4 3c
       -0.14950925 0.00443332 -0.034079198 0.027897539
000010 01 d7 48 3d ac be 0f 3e a5 9c fe be 9b 11 a7 bd
       0.04903317 0.1403758 -0.49728885 -0.08157655
000020 54 aa 41 be 7b de 82 3e 89 0e 02 3e 77 5a 21 3e
       -0.18912631 0.25560364 0.12700857 0.15757166
000030 23 7d 1a 3e 28 e1 06 bd c7 b7 29 3e 32 cd dd 3d
       0.15086798 -0.03292957 0.16574012 0.108301535
000040 fd b2 9d bb 01 ab 89 3d 41 1f 97 3f 0e 2f 84 3f
       -0.004812597 0.067220695 1.1806413 1.032686
000050 bc c1 2b 3e b3 82 1f 3f 93 51 53 3f d6 08 ad 3e
       0.16773123 0.62308806 0.8254635 0.33795804
000060 c7 7a 8c be d8 66 bc bd bf 2e f9 3d be 40 19 bd
       -0.27437422 -0.091993034 0.12167119 -0.03741526
000070 04 55 9b bc b6 4f 17 be d1 ab 81 bd 33 df 48 bc
       -0.018961437 -0.14776501 -0.063315995 -0.012260246
000080 25 84 ff bd 84 0b 56 be d4 6c 1c be cb a8 67 be
       -0.124763764 -0.2090283 -0.1527589 -0.22622983
000090 51 34 83 3f c3 09 45 3f 4a ab 3f 3f 7d fe c9 3e
       1.0250341 0.7696802 0.7487074 0.39451972
0000a0 90 35 26 3f a2 45 9f 3e 74 41 a6 be 58 7c f0 bd
       0.6492548 0.31107813 -0.32471812 -0.11742467
0000b0 de 2d 9c be 91 93 50 3f e7 56 61 3f 8d 3c ac 3e
       -0.30503744 0.8147517 0.8802323 0.33639947
0000c0 47 da 7b 3e 8d 8d 19 3f 5c 17 06 3e 4b c9 77 be
       0.24594985 0.59981614 0.13094848 -0.24197881
0000d0 16 0a 21 be 6d 87 18 be cf ee 1e be a3 f8 55 bd
       -0.15726504 -0.14895411 -0.15520786 -0.05223907
0000e0 ae bb ab bc 7c 03 1a be c3 ae bb bd 92 2c 8c 3d
       -0.020963516 -0.15040392 -0.091641925 0.068444386
0000f0 3a 44 98 be bb 5d 7e be 7a bf 5c bd bb 55 ca be
       -0.29739553 -0.24840443 -0.053893544 -0.39518532
000100 46 51 6e be 62 c9 f5 bd 6b f0 5b be 0e dc f0 bd
       -0.23273191 -0.12001301 -0.21478431 -0.11760722
000110 27 e7 4c be a3 2a 05 3e f3 66 70 3e a9 1b ac bd
       -0.20010053 0.13004546 0.23476772 -0.08403713
000120 b8 40 6a 3e c0 22 25 3e ea e7 e9 3d b1 ee 53 3d
       0.2287625 0.16126537 0.11421187 0.051741306
000130 aa c6 6b 3e 97 93 19 bd be 88 9c bd 97 38 b4 3c
       0.23025003 -0.03749427 -0.07643269 0.02199964
000140 a4 0b d3 bd 45 0d b0 3d 2c 1d 07 bd 43 b9 16 be
       -0.10304955 0.08596281 -0.032986805 -0.14719109
000150 36 84 92 3c b0 99 4b bd 72 a7 df bc 62 e3 b3 bd
       0.017885309 -0.049707115 -0.027301524 -0.08783604
000160 61 1d 0f bd 92 77 4c bb a9 de a1 be ba f8 8d bd
       -0.034940127 -0.00311992 -0.3161519 -0.069322065
000170 9f ea 7c be 95 99 47 be d0 4c cc bd b3 29 96 3d
       -0.24698876 -0.1949218 -0.09975588 0.07332172
000180 7a 80 c0 bc fc 72 4e 3e 37 ad f4 3d 87 bb 67 3f
       -0.023498762 0.2016105 0.119471006 0.9052052
000190 81 32 fc 3e bc 2e 36 be e8 5f a7 3e 87 e4 9b 3e
       0.4925728 -0.17791265 0.32690358 0.3044779
0001a0 40 cc 2d 3e 38 43 3c 3e b8 e2 62 be b1 59 de be
       0.16972446 0.18385017 -0.22156799 -0.43427804
0001b0 4e eb 19 be 75 ea ef bd 44 62 51 be 4c f2 aa bd
       -0.15031168 -0.11714641 -0.20447642 -0.08346996
0001c0 30 b2 21 3e 27 6e 73 3b 64 23 db be d6 cc 80 3d
       0.1579063 0.0037144513 -0.42800438 0.06289069
0001d0 da e3 7b 3d e9 24 4e 3e f0 7a c3 3d fb 74 17 3e
       0.061496593 0.20131268 0.09544933 0.14790718
0001e0 8a f3 ba 3e cd 5a 95 bd 1e fa 67 be 7b 76 6c be
       0.3651393 -0.072927095 -0.22654006 -0.23092072
0001f0 c0 17 da be d4 34 10 be fb 58 3b 3f 2c 7a 3e 3f
       -0.42596245 -0.14082652 0.7318265 0.7440517
000200 f6 14 cd 3e f1 dd 5d 3f d6 9a 43 3f be d0 36 bd
       0.40055054 0.8666678 0.76408136 -0.044632666
000210 bf 0e 8b be 64 7d ca be 73 30 ba be bb ea 24 bf
       -0.27159688 -0.3954879 -0.3636509 -0.6442067
000220 69 42 a7 be 08 5b e0 3d 90 8b be be 86 6e 23 be
       -0.32667854 0.10954863 -0.37215853 -0.1596013
000230 d8 37 85 3e d0 7d 20 be f7 8b 25 3e c7 8a 72 3e
       0.26019168 -0.15672994 0.16166674 0.23685752
000240 a3 68 7c be 2b c2 22 3e 52 93 8a 3e fc 25 59 be
       -0.2464929 0.15894382 0.2706552 -0.21205896
000250 4a 48 81 3e 93 23 04 3e 33 8f 1e be 37 01 8d 3e
       0.25250465 0.12904195 -0.15484314 0.2753999
000260 33 f5 b5 3e 4b e9 f3 bd cf ab f1 bd 2d ff c3 bb
       0.35538635 -0.119097315 -0.11800348 -0.005981347
000270 38 9d b9 be 81 12 63 be 15 c3 f3 bc e4 c2 90 be
       -0.3625276 -0.22175027 -0.029756108 -0.2827369
000280 9c ce 6d bd c2 4e a6 3d 50 15 cf be 22 25 83 3e
       -0.058058366 0.081204906 -0.40445948 0.25614268
000290 ac 9f 54 3f ce d4 d5 be ac 69 8b 3e cd 96 23 3f
       0.8305614 -0.4176392 0.2722906 0.6390198
0002a0 d3 ee 0d bb 7e 02 b2 3e 3a ab b7 3e e1 1f 5e 3c
       -0.0021657243 0.34767526 0.35872823 0.013557405
0002b0 2a cc 86 3e e1 b9 a0 3e 6e 36 1e 3e 94 da db 3e
       0.2632764 0.31391814 0.15450451 0.429402
0002c0 75 4b 6d 3e 5e c5 85 bd 25 b9 77 3e e3 5b af 3e
       0.23173316 -0.065317854 0.24191721 0.34249792
0002d0 c6 30 db be 39 ab 4c 3e 62 50 5f 3f 29 d5 c2 be
       -0.4281065 0.19987191 0.8723203 -0.38053253
0002e0 4c 70 ce 3c 33 4f 63 3e ee 66 7a be 90 2d c7 bd
       0.025200032 0.22198181 -0.24453327 -0.09725487
0002f0 fe 40 04 3f be 22 84 bf 49 1a c0 3e a5 db f8 3e
       0.5166167 -1.0323102 0.37520054 0.48605075
000300 23 d5 1d bf 2e 84 b6 bc f6 86 10 be 69 43 ea be
       -0.61653346 -0.022279825 -0.14113984 -0.45754555
000310 e8 03 35 bd 01 b4 c7 3e ff b4 1e 3e ed d0 92 3d
       -0.04419318 0.3900452 0.15498732 0.07168756
000320 1c a2 6c 3e 66 9d 11 be af 48 0e 3d 7b 95 0a bc
       0.23108715 -0.14220199 0.034737285 -0.0084584905
000330 50 4d 18 be 82 88 53 be 55 cc 1f be 9f 8e 84 be
       -0.14873242 -0.20657542 -0.1560529 -0.2589006
000340 08 da c9 be 27 84 92 be 2c d6 d0 be 21 20 18 bc
       -0.39424157 -0.2861645 -0.407884 -0.009285004
000350 c1 e9 d5 be 9d 9c 29 3d 59 e9 81 3d 16 39 93 3e
       -0.41779903 0.041409124 0.06343336 0.2875449
000360 75 3d 44 3d b0 38 cc 3e fb 13 2c 3f 31 fc 2a be
       0.047910172 0.39887 0.6721799 -0.16697766
000370 6a 8f e0 bd 3b 32 0f bc 93 3f 46 be b1 c1 ae 3e
       -0.10964854 -0.008740003 -0.19360189 0.3413215
000380 9f bc b0 3e 0d 15 92 be 2f 90 8a 3d 26 b3 78 3d
       0.34518906 -0.28531685 0.06765782 0.060717724
000390 91 45 f3 bd 29 81 1d 3e 7c ed 01 bd c5 17 75 3d
       -0.11878503 0.15381302 -0.031720623 0.05983712
0003a0 24 96 64 3e 50 92 e8 bd 35 11 11 be 42 87 74 be
       0.22322899 -0.11356032 -0.1416672 -0.23879722
0003b0 01 a9 77 bd 8d 74 31 3b 71 31 c7 bd 94 90 0c bb
       -0.06046391 0.0027077526 -0.09726227 -0.002144848
0003c0 84 39 64 bd 84 e6 ba be a0 41 51 be 12 49 2b be
       -0.055718914 -0.36503994 -0.2043519 -0.16727093
0003d0 7b 4c 04 3f 13 49 3e 3f 1e f8 c9 bd 82 58 90 3e
       0.516792 0.7433025 -0.09861778 0.28192526
0003e0 67 50 0d 3f 42 a8 0b be b1 ee 96 3d c7 4a 3b 3f
       0.5520081 -0.13638404 0.073697455 0.73160976
0003f0 59 10 91 be 27 9c 4c bd 0e 99 a0 3e d5 df 27 3e
       -0.28332785 -0.049953606 0.3136677 0.16393979

module.refine_spn.0.4.weight f4 [16, 16, 3, 3]
000000 3f 83 10 be c7 dc db be cb 0e 74 be 85 ff a3 3e
       -0.14112566 -0.42941877 -0.23833768 0.32030883
000010 b4 40 93 be 94 be ab be a9 21 58 3e f6 b4 db 3d
       -0.28760302 -0.33543837 0.2110659 0.10727875
000020 0f e8 40 3e 9e 8d 17 3e 69 4f da 3e 8d 84 78 bc
       0.18838523 0.14800116 0.4263871 -0.015168321
000030 fe c3 ca 3d fa 30 73 3d 0c 03 87 bc 47 e4 9a 3e
       0.09900664 0.05937288 -0.016480945 0.30252287
000040 8d 5b a6 b9 2c 0a 21 3e 24 bc 5c 3e 23 ac 20 3e
       -0.00031730198 0.15726537 0.21556145 0.15690665
000050 b1 d8 c3 3d 45 5f 06 3e 70 dd 19 bc dc 12 3f 3e
       0.09562815 0.1312228 -0.009391174 0.18659538
000060 d3 65 0d 3e 8a f9 74 3e f5 9e 8b bd d9 12 6f bf
       0.13808374 0.23923317 -0.06817428 -0.93388134
000070 1f c3 ff be 37 78 90 be 4b cf f9 3c 38 20 32 be
       -0.49953553 -0.28216717 0.030494353 -0.17395103
000080 d8 68 77 3d 2d dd 4c be e4 bb eb bd 9c 2e 82 3e
       0.06040272 -0.20006247 -0.11510447 0.25426185
000090 df 64 dd 3d bd ac 19 3f 4b e9 49 3f 7f dd 9b be
       0.10810255 0.600292 0.788716 -0.30442426
0000a0 78 c9 04 3e 6d 38 bd 3c 54 72 79 be c5 bb 87 be
       0.12967479 0.023098195 -0.24360019 -0.26510444
0000b0 0f 7c de be 25 50 e6 be f6 17 cd be 72 8e e2 be
       -0.43454024 -0.4498302 -0.40057343 -0.44249302
0000c0 82 bd c9 be 85 2c 2b be 33 9a 5c be bc e8 f8 bc
       -0.39402395 -0.16716202 -0.21543197 -0.030384414
0000d0 42 c3 78 be 10 68 66 bb 79 8f f7 3d 78 18 48 3e
       -0.24293235 -0.003515724 0.12087912 0.19540584
0000e0 06 93 df 3d 03 65 23 bb dd 2f 04 be 1a 63 97 bd
       0.10916714 -0.0024932034 -0.12908883 -0.07391949
0000f0 94 44 b6 3e 94 04 3d 3d cb d1 0b 3d c2 a7 a8 3d
       0.35599196 0.046146944 0.03413562 0.08235122
000100 03 39 f2 3d e4 41 9d 3d 4a 88 22 be d8 9e a4 3e
       0.1182728 0.07678583 -0.15872303 0.32152438
000110 e5 43 e4 3c 2e 37 ab be ab 93 91 be 21 67 13 3c
       0.027864406 -0.33440536 -0.28432974 0.008996756
000120 20 46 99 bc 5d 4c 73 be 0b fa b4 bd 70 6d ce 3e
       -0.018710196 -0.23759599 -0.088367544 0.4031787
000130 ed eb 0b bc 7f 48 e3 bc 99 00 06 3e 3b 81 3c bd
       -0.008540136 -0.02774453 0.13086165 -0.04602168
000140 70 0c 16 3e 65 4a bf be de 1b 85 bd 63 d6 77 be
       0.14653182 -0.37361446 -0.06499456 -0.24202876
000150 05 47 47 bd 48 19 3e be 68 b9 42 be 0d 6c 14 be
       -0.048651714 -0.18564332 -0.1901604 -0.14494343
000160 43 93 68 bd fc 66 05 bd 5f 9f a5 bc dc 25 ab 3d
       -0.056781065 -0.032568917 -0.020217596 0.083568305
000170 25 49 af 3d 24 5a 70 bd 36 30 45 3e f4 97 5b 3c
       0.08558873 -0.058679715 0.19256672 0.013402928
000180 0d f9 80 be e3 08 ba be a0 3f b6 bd 70 0e a3 3e
       -0.2519001 -0.36334905 -0.08898854 0.31846952
000190 f0 13 fb bc 71 b7 c1 3d 91 44 1b 3e bb 44 9e 3c
       -0.030649155 0.09458817 0.15162875 0.019319883
0001a0 ad cd bd 3d a7 29 82 be c5 ef 68 bd 83 94 64 be
       0.09267745 -0.25422403 -0.056869287 -0.22322278
0001b0 63 c1 b6 bb 66 72 16 3e a8 cb db 3e 30 20 76 be
       -0.0055772527 0.14692077 0.42928815 -0.24035716
0001c0 2b 23 f9 3d 70 10 00 3d 36 fb a0 be c2 e3 8e be
       0.12164911 0.031265676 -0.3144166 -0.2790814
0001d0 82 f9 d3 be a2 48 86 3d 91 4c 38 bf 27 98 8b bd
       -0.41401297 0.06556822 -0.7199183 -0.0681613
0001e0 41 50 cb 3e 66 df cd bd bf de 75 be ae 64 9a 3e
       0.39709666 -0.100523755 -0.24010752 0.30154938
0001f0 5c 23 2a 3e 74 d1 5c 3e 25 e4 af bc 8e 57 31 be
       0.16615051 0.21564275 -0.021471092 -0.17318556
000200 22 56 48 bf b3 5c 1d 3e 09 61 04 3e c9 e0 22 bd
       -0.7825643 0.15367393 0.12927641 -0.039765153
000210 11 d0 00 3d 01 95 b1 3d 9d 7c 5c 3e 5b 1f 9f be
       0.031448428 0.08670998 0.21531911 -0.3107861
000220 4e 71 ae be f2 de b8 be ba d1 29 be 46 61 0f be
       -0.3407082 -0.36107594 -0.1658391 -0.1400195
000230 72 d6 a3 bd a7 60 6b 3c 7e 80 5e be 3e 5f b4 be
       -0.079998866 0.014366305 -0.21728703 -0.35228914
000240 47 7a ae 3e 3e 45 8f 3e 67 4c d1 3e cb 65 63 be
       0.34077665 0.27982515 0.40878603 -0.222068
000250 7a 12 f1 bd 33 3e 93 3e 8f c4 50 bd 5e bf e8 be
       -0.11771102 0.28758392 -0.050968703 -0.45458502
000260 dc c6 95 3d 09 1d b8 be 89 4a 06 3e c1 7e 11 3e
       0.0731332 -0.35959652 0.1311437 0.14208509
000270 90 15 01 bf f4 aa d8 3d ba a6 29 3e 9a 9c 06 bf
       -0.50423527 0.10579482 0.16567507 -0.52582705
000280 56 71 39 3e 56 72 dc 3d 1f e2 3b be 79 69 f3 bb
       0.1810964 0.10763995 -0.18347977 -0.007428345
000290 e6 ac 03 be df 01 9e be 14 1d 06 3e 32 6f 08 3d
       -0.12858924 -0.30860803 0.1309703 0.03330917
0002a0 08 8b 16 b9 87 b3 e1 3d 58 9b 20 3d f1 27 d5 3e
       -0.00014356908 0.1102057 0.039210647 0.41632035
0002b0 5c a2 95 bd 84 62 aa 3d 69 79 c7 be 5a 1b a8 bd
       -0.07306358 0.083195716 -0.38959816 -0.08208342
0002c0 9c 10 fc be 1e bb 9a 3e c5 e4 08 bd 97 82 c2 be
       -0.49231422 0.30220884 -0.033421297 -0.37990257
0002d0 2f 59 9c be 35 e6 e0 be dc 3f 2d bf 67 c4 f2 3e
       -0.30536792 -0.43925634 -0.67675567 0.47415468
0002e0 aa 35 9b bc 84 ff 74 be 0f df 68 3f 5a 98 7b 3e
       -0.018946487 -0.23925596 0.9096536 0.24569836
0002f0 1f e8 bc be 50 18 dd be e6 cc 70 be 80 15 25 bf
       -0.36895844 -0.4318261 -0.23515663 -0.6448593
000300 d2 20 37 bf 57 72 4c be d7 10 56 bf 89 a1 79 bf
       -0.71534455 -0.19965492 -0.83619446 -0.9751211
000310 08 35 d5 be 6e a7 40 bf b0 3d 4e 3e 51 aa 91 3e
       -0.41642022 -0.7525548 0.2014072 0.28450254
000320 aa 03 d3 3d e9 e4 9f 3d 26 33 a7 3d d3 1b b7 be
       0.10303433 0.07807333 0.08164053 -0.35763416
000330 5f 5e 03 bf d6 b9 07 be 01 11 0f 3f d4 40 b4 be
       -0.51315874 -0.13254485 0.5588532 -0.3520571
000340 fc b4 1e bf 1e 41 36 bf 05 3b 7a 3e 05 26 b8 bd
       -0.6199491 -0.7119311 0.24436577 -0.08991627
000350 8d 81 a5 be 92 aa 4b 3f a9 5a c8 3e 56 d9 8f bd
       -0.32325402 0.79557145 0.39131668 -0.070238754
000360 45 0c 4e be 7a 7b 81 be d6 b5 63 3e 89 fa a6 3e
       -0.20121868 -0.25289518 0.22237334 0.32613018
000370 c6 e3 12 be 60 ac e7 3d 0c fa 31 be 26 28 a4 bd
       -0.14344701 0.11312175 -0.17380542 -0.0801547
000380 52 9f 85 3e 2f 50 ad 3e 7c 20 49 3e 4d 44 a6 3e
       0.26098114 0.33850238 0.19641298 0.32473984
000390 fe 64 c1 bd 43 dd 49 3e e0 e8 55 bd 93 39 cb bc
       -0.09443091 0.19713311 -0.05222404 -0.024807727
0003a0 a8 1f 82 3e 6c ba b3 bd ac f0 1f be c5 f7 4a bd
       0.25414777 -0.087757915 -0.15619153 -0.049552698
0003b0 c0 54 03 be 8a 3f a3 3d 2f 8e 5b be ef 7f 18 be
       -0.12825298 0.079711035 -0.21440957 -0.14892553
0003c0 8e c8 aa 3e 08 9a 41 3d 17 69 5d 3d ac fe d5 bd
       0.33356136 0.047266036 0.0540553 -0.104489654
0003d0 cd 78 2f be a1 3d 95 bd 24 cc 14 3e f1 d1 db bc
       -0.17135926 -0.072871454 0.14530998 -0.026833506
0003e0 89 b4 a0 bd 51 a9 90 3d 0a 42 8c 3c 4f 88 66 3e
       -0.07846934 0.070635445 0.017121334 0.22512935
0003f0 08 43 67 bd c8 2d 8f be 88 70 b1 bf 9b 29 ee 3d
       -0.05646041 -0.27964616 -1.3862467 0.11629029

module.refine_spn.0.6.weight f4 [24, 16, 3, 3]
000000 a8 1f df 3d ba 73 90 be 64 70 50 be f4 d9 80 3e
       0.1089471 -0.28213292 -0.20355374 0.25166285
000010 86 72 f7 3e e5 92 eb bc 60 42 2e be 66 e1 1d 3e
       0.48329562 -0.028756568 -0.17017508 0.15418014
000020 dc 27 90 bc ba 53 8a bd 27 e6 0d 3d 9b cc 73 3e
       -0.017597131 -0.06754251 0.03464332 0.2380852
000030 26 6b 98 3d 51 43 91 3e d0 4c 05 3f 76 85 cd bd
       0.07442312 0.2837167 0.5207033 -0.10035221
000040 8c 1c 16 3e b2 5f dd 3e 62 df be 3d be 79 e5 3d
       0.14659327 0.43237072 0.09319951 0.11204861
000050 4a c5 18 3c 0a 7f 46 be e8 83 7f be e2 03 84 be
       0.009324381 -0.19384399 -0.24952662 -0.25784212
000060 72 96 f9 3e 2d b5 ff 3e 75 f1 61 3f a6 07 57 3e
       0.48747593 0.49942914 0.8825906 0.20999011
000070 f3 56 5f 3e 51 89 9a be 2e b8 a2 3e 09 15 51 3e
       0.21810512 -0.3018289 0.31781143 0.2041818
000080 36 f3 be 3d b5 57 4f 3e e9 c9 9a bc 53 6f 44 bd
       0.093237326 0.20248301 -0.018895106 -0.04795773
000090 01 51 af be 9a ca d6 bd 49 24 bd bd 4b 66 4c 3d
       -0.3424149 -0.10487862 -0.092354365 0.04990224
0000a0 7b f0 dd 3c 44 2a 11 be 27 eb 58 be f8 7a 42 bd
       0.02709221 -0.1417628 -0.21183454 -0.047480553
0000b0 d9 55 67 3d 95 83 07 be c9 10 aa bd ea d2 2d bd
       0.056478355 -0.13233788 -0.08303983 -0.04243747
0000c0 ea b6 c6 bd e3 fd 71 3e b0 8c ca bc 98 b9 fd 3d
       -0.09702857 0.23632006 -0.024725288 0.12388915
0000d0 23 4e 47 3e e1 c4 a6 bd 84 cf e1 3e 86 74 c0 3e
       0.194634 -0.081430204 0.44103634 0.375889
0000e0 03 aa 01 3d e2 d6 f9 3c a1 77 80 be 14 bf 1c 3e
       0.031656276 0.030497972 -0.2509127 0.15307266
0000f0 98 12 3d 3e 47 5b ee 3b 82 ae a5 3e 0a 00 15 3e
       0.18464124 0.0072740647 0.323597 0.14550796
000100 09 af 2f be dc 6b bd bd 41 33 1b 3d 0a ee 9e bd
       -0.17156614 -0.09249088 0.037890676 -0.07760246
000110 ce 8a 00 be a7 b5 cb 3e 20 68 8f bd bc 13 2a 3d
       -0.1255295 0.39787027 -0.07002282 0.041522726
000120 5a 83 df 3f a3 0e 61 3e 66 bd 08 bf 9f 28 82 3f
       1.746196 0.2197824 -0.53414 1.0168647
000130 e4 85 47 3f 7a de ea 3c e7 b5 9b 3e 9c c0 b6 be
       0.77938676 0.028670538 0.30412218 -0.35693824
000140 0a a0 a8 be 8b 1e f5 3d 1c 7d 81 bd 81 ae 9c 3d
       -0.329346 0.11968716 -0.06322691 0.076504715
000150 80 84 ad 3e 08 50 8c bc 7d 35 88 bd a0 31 e7 3d
       0.33890152 -0.017128006 -0.06650827 0.11288762
000160 52 b6 65 3d d8 00 7f 3d cf c6 92 bd 4c d4 6c be
       0.056082077 0.062256664 -0.07166826 -0.2312786
000170 9c 6c 16 3e 84 1a 4e 3e 7f d8 29 3d bf b7 e5 3c
       0.14689869 0.20127302 0.041466232 0.028041719
000180 70 60 2d 3d 12 47 0e 3d 20 cb a5 3d 7a 89 0c 3e
       0.042328298 0.034735747 0.08095384 0.13724318
000190 4f 12 82 3e 07 04 bb bd 55 36 ed bd 50 d7 9b bc
       0.25404593 -0.091316275 -0.11582629 -0.019023567
0001a0 74 87 ad be 76 78 e2 bd f5 7b cd 3b 4c 89 58 be
       -0.33892405 -0.11058132 0.0062708803 -0.21146125
0001b0 b0 4d 90 3e 4d 60 6d 3f bc 29 94 3e 6a 31 39 3e
       0.2818427 0.9272507 0.2893809 0.18085256
0001c0 30 b5 06 3f a4 68 ae be 05 f4 2c 3e cc 39 aa 3e
       0.5262022 -0.3406421 0.16889961 0.3324722
0001d0 ea fc 59 be e1 e5 95 3e 8a 82 71 3d 44 3c 92 3d
       -0.21287885 0.29276946 0.058962382 0.07140401
0001e0 b0 33 0e 3c 49 8e 0a 3e d8 b9 c3 3d 50 3f d1 bd
       0.008679315 0.1353084 0.09556931 -0.10217154
0001f0 2c cd af bb 15 00 b5 3c e8 0d 26 3f a2 6e b9 3e
       -0.0053650346 0.022094766 0.6486497 0.3621722
000200 b8 28 a4 3d 00 d2 2f 3e bc ed b8 3d 78 46 89 3d
       0.08015579 0.17169952 0.09029719 0.06702894
000210 8f c7 22 3d 4d d7 4c 3e c2 f0 d5 bd 4c 07 04 be
       0.039741095 0.20004006 -0.104463115 -0.12893409
000220 9a 3c 88 3e 27 0f 6c bd e7 10 a8 be 45 c5 be 3e
       0.26608735 -0.057631638 -0.32825395 0.3725988
000230 15 fc 3b 3e 28 45 02 be f1 eb 3a 3d fe 26 f1 3d
       0.1835788 -0.12721694 0.045635168 0.11775015
000240 da 55 b6 bd 54 f2 e5 bc 08 61 de bd 53 21 44 be
       -0.08903094 -0.028069653 -0.10858351 -0.19153337
000250 b5 61 9a be 97 f0 5d bd fd 14 fd 3d f2 3f 88 be
       -0.3015267 -0.054184522 0.12357519 -0.26611286
000260 5b 7f 78 3e b6 e3 0c 3d 56 16 89 3d 1e 33 8b 3d
       0.24267332 0.03439685 0.06693713 0.06796859
000270 7f 8f 9c 3d 8c c6 2a bd 5c 51 06 3e 43 8b ca be
       0.07644557 -0.041693255 0.13116974 -0.39559373
000280 10 79 a8 3d 48 fb 93 be d4 c4 8b bc 4c cf 81 3c
       0.08226216 -0.2890265 -0.017061628 0.015845917
000290 40 f2 41 3d f4 ba 87 be 69 2a 20 be 94 ad 5f be
       0.04735017 -0.2650982 -0.15641178 -0.21843559
0002a0 68 72 dd be d7 94 62 be 6e 52 74 be 98 f7 fe 3c
       -0.43251348 -0.2212709 -0.2385957 0.031123921
0002b0 63 7d af bd ff db 5d 3d 0c 52 4c 3e c3 95 95 3c
       -0.085688375 0.054164883 0.19953173 0.018259889
0002c0 24 5b a7 3e 1b ef 92 3e a4 0e 1f be d0 55 a3 3e
       0.32686722 0.28698048 -0.15532929 0.31901407
0002d0 8e 8b 4f bc 03 85 87 3d 8e f5 c5 3c 09 65 01 3e
       -0.01266755 0.06617167 0.024164941 0.12636198
0002e0 9c 27 d9 3d cc 1d 17 3e 18 16 e4 3e c3 6a cc 3e
       0.10603258 0.1475746 0.44548106 0.39925203
0002f0 3a 17 82 3e 8e 29 90 3d 04 75 0b 3c a0 2d 06 bd
       0.25408345 0.07039176 0.008511785 -0.032758355
000300 c8 7f 5a 3d 62 90 14 3e 8a 40 f8 3d 54 80 4f 3e
       0.053344518 0.14508203 0.12121685 0.20263797
000310 c8 45 b3 3e 17 42 87 3e fb 79 87 3c fc 0a 70 3d
       0.35014176 0.2641761 0.016537657 0.058604226
000320 16 52 80 3d fa 10 12 3e d1 88 f6 3c 37 a9 ff bd
       0.06265657 0.14264289 0.030094536 -0.12483447
000330 b0 e0 2c be f8 18 b4 be 51 ae ec 3d 34 03 39 be
       -0.16882586 -0.351753 0.11556686 -0.18067628
000340 b8 aa c0 3e 91 3c 4c 3e 06 2d ec bd 9c 13 c4 bd
       0.37630248 0.19944979 -0.11532025 -0.09574053
000350 e1 f5 54 be 22 81 0a be 04 1d 0c 3f b2 8f 40 3c
       -0.2079692 -0.13525823 0.54731774 0.01175301
000360 53 b0 3f be 81 c4 46 bd 5d c1 bb be 13 04 01 3f
       -0.18719606 -0.048527244 -0.36670962 0.5039684
000370 e0 ec 3f bc 14 89 56 be 03 82 e4 3e 8b d3 ac 3e
       -0.01171419 -0.20950729 0.4463044 0.33755144
000380 9d 24 ca 39 9f 08 9a 3a 69 1e 0f 3d 57 cb 75 bc
       0.0003855572 0.0011751837 0.03494111 -0.015002093
000390 f0 e8 e5 3d 8b fb b0 3d 54 21 c8 3d 61 4d c2 3e
       0.1122607 0.08641728 0.09771982 0.3794966
0003a0 49 3b 55 3e 31 ce c1 3e 6d a1 68 bd 33 5d 1f bc
       0.20823397 0.37852624 -0.056794573 -0.00972681
0003b0 19 56 a4 bc 67 f4 6e 3c f2 07 91 bb c3 5b d7 bd
       -0.020060586 0.014584637 -0.004425996 -0.10515549
0003c0 0a 66 72 3d 22 d7 8d bd 55 e6 37 3d 89 c8 e3 bc
       0.059179343 -0.06925799 0.044897396 -0.027805584
0003d0 14 8e 03 bc 72 1d 34 3d 6f 54 16 3e 44 7f 93 3d
       -0.0080294795 0.043973394 0.14680646 0.07202008
0003e0 61 2c 37 3e 5c f5 82 3e 9c 8d 79 3d c6 99 9c 3e
       0.17888023 0.2557782 0.060926065 0.3058607
0003f0 c3 ca 85 bd fd f8 d3 bc 50 31 83 bd 55 49 9f bd
       -0.06532814 -0.025875563 -0.0640589 -0.07777659

module.refine_spn.1.weight f4 [8, 1, 3, 3]
000000 89 9e fd bd 25 9c bb 3a 7f d7 f6 bc 3e 5c 36 bd
       -0.12383754 0.0014313502 -0.030132053 -0.044521563
000010 6d 4a c2 bd 40 2e bd bd e9 38 7a 3e c6 3b 4b be
       -0.09486852 -0.09237337 0.24435772 -0.1984702
000020 01 c1 63 3d a9 e8 21 be 67 7b 2b bc c9 69 28 bd
       0.055603985 -0.15811409 -0.010466433 -0.04111651
000030 07 3a 45 3e 13 dc c5 be 68 7f 54 3d 74 2e 2d 3e
       0.19260417 -0.38644466 0.051879317 0.16912252
000040 6e bc 0e 3e 57 7f 23 3d f8 08 04 be fa 3c b1 bd
       0.13939068 0.039916363 -0.12894046 -0.086542085
000050 6b d5 ff 3d 60 37 d6 bd 73 8f c6 bd 4c bf b2 3d
       0.12491878 -0.10459781 -0.096953295 0.08727893
000060 a3 a9 38 3d 57 2f 5b 3b 0d df 7f 3e e1 0a d5 bc
       0.045083653 0.0033444965 0.24987431 -0.026006164
000070 12 7b 13 3d f1 d2 e0 3d a7 02 79 bd 80 57 82 3e
       0.03600604 0.10977734 -0.060793545 0.25457382
000080 ef 8a e5 3d 4a 3d 40 3d dd 3c 74 3e 74 95 8b be
       0.1120814 0.04693345 0.23851342 -0.2726246
000090 09 4f 4f bd 02 29 1b be ee 4e 51 be 94 ec 56 be
       -0.050612483 -0.15152362 -0.20440266 -0.20988685
0000a0 40 c4 50 3e fc b6 68 be 1a a1 2e 3e 5e d3 12 3d
       0.20387363 -0.22726053 0.17053643 0.035846107
0000b0 47 21 6a be ed 65 72 be 4a ab 11 be 4a f6 72 be
       -0.22864257 -0.23671694 -0.14225498 -0.23726764
0000c0 c7 11 09 be 65 86 1b 3e 71 a0 38 3c 78 f7 7d 3e
       -0.13385688 0.15187986 0.011268721 0.24801433
0000d0 97 b9 8f 3e 15 22 4e be a0 ae 00 3e 18 c1 4f 3d
       0.2807128 -0.20130189 0.12566614 0.050721258
0000e0 3f 26 1b 3e 29 4b bc 3b 0d ba 54 3d 6e 37 b4 bd
       0.15151308 0.0057462645 0.051935244 -0.08799635
0000f0 ef 94 5b be f3 89 36 be 37 b0 b2 bd 67 20 91 bd
       -0.21443532 -0.17826061 -0.087250166 -0.070862584
000100 16 7c 3c be 1f d8 43 3e ba c1 02 3e c6 ef d5 bd
       -0.1840671 0.19125412 0.12769213 -0.10446124
000110 0b 8a 03 3e df 16 6d bd d8 1f b9 bd ef 61 0d 3e
       0.12845628 -0.05788314 -0.09039277 0.1380689

module.refine_spn.2.weight f4 [1, 8, 3, 3]
000000 a1 70 4f be fa aa 22 bf 1a 3c 39 3f c7 f1 6a 3b
       -0.20257808 -0.6354214 0.7235733 0.0035849677
000010 89 14 8a be 48 6d 86 3d 09 e6 41 3e 81 1c fc be
       -0.26968792 0.065638125 0.18935408 -0.49240497
000020 d0 10 1d 3f 4b 5c 7e be b3 85 48 3e a8 e5 39 3f
       0.6135378 -0.24839894 0.19582252 0.7261605
000030 5b 3c 8e 3e 5c 63 39 bf 64 78 43 bd ee 02 e5 3e
       0.27780423 -0.72417235 -0.047722235 0.44728798
000040 3d 32 2c bf 6e 00 d3 3d d2 88 0f bf c6 59 cc be
       -0.6726416 0.10302816 -0.56068146 -0.39912242
000050 fa 43 d6 3e 4b e8 7e be dd 9c e5 be 2d c8 e7 3e
       0.41848737 -0.248933 -0.4484624 0.4526991
000060 0c fb 43 3e 35 8f 9f 3e 60 26 9f 3e 15 87 bc be
       0.19138736 0.31163946 0.31083965 -0.3682181
000070 b2 38 70 3e c1 86 c8 bd 86 c3 7f bd bc 85 46 3f
       0.23459128 -0.09791327 -0.062442325 0.7754781
000080 4c 15 54 bd a4 f4 45 3f df 19 4f bf 98 f2 84 3e
       -0.051778123 0.77326417 -0.8089885 0.25966334
000090 ae 71 90 3e ef 83 2e be ce 7b 82 3d 2c 32 d4 3e
       0.2821173 -0.17042516 0.0637127 0.41444528
0000a0 60 1e 02 bf 89 ad 1b 3e b8 f2 7c bf 7c 29 a3 be
       -0.508276 0.15202917 -0.9880786 -0.31867588
0000b0 b0 4b a2 be 84 ed a1 be bd 15 1f be c2 3a b0 be
       -0.3169837 -0.31626523 -0.15535636 -0.3441983
0000c0 96 3e 12 3f 5d af 16 be 05 ab 3a 3e 01 2f 4c 3f
       0.5712675 -0.14715333 0.18229301 0.7975922
0000d0 b3 28 3c be 81 d0 01 3e 54 34 a6 3e 6c 6b d9 be
       -0.183749 0.12677194 0.32461798 -0.4246477
0000e0 e0 e4 cb be e5 d8 cd be 59 3a c7 3e 3b 49 cd bd
       -0.39823055 -0.4020454 0.38911703 -0.10023733
0000f0 08 e4 7a 3a 33 61 61 3f 96 c0 28 3e 27 06 2a be
       0.00095707225 0.8803894 0.16479716 -0.1660391
000100 a8 e8 3e 3f aa 39 3b 3e 9a 77 ca 3e 4e ae 1c be
       0.74573755 0.18283716 0.39544374 -0.15300867
000110 8c 3c dc be f0 c1 45 be 74 63 50 be 64 23 ff bd
       -0.43014944 -0.19312263 -0.20350438 -0.12457922

module.feature_extraction.block0.0.0.weight f4 [1, 3, 3, 3]
000000 61 40 bd be c3 23 7c bc ec 6f 8e 3e c1 bb 40 3e
       -0.3696318 -0.015389386 0.27819765 0.18821622
000010 95 5b 6d 3e 61 6b 77 3e 12 b3 18 3f f8 02 ec 3e
       0.23179467 0.24162056 0.5964824 0.46096015
000020 72 92 6e 3d c7 f4 e2 3f 47 01 95 3f 89 91 b2 3e
       0.05824513 1.773095 1.1641015 0.3487666
000030 01 43 4d 3e 38 14 08 3f 81 36 32 3f 14 40 ae 3e
       0.20045091 0.5315585 0.69614416 0.34033263
000040 dd e7 13 3f ae a9 f5 3e c4 ee 85 bd 40 0f 13 3e
       0.5777567 0.47981018 -0.065396816 0.14361286
000050 c3 1d 11 3e 4d fc a9 3e 5f 39 0d 3f dc af 55 3e
       0.1417151 0.33200303 0.55165666 0.20867866
000060 f4 4b 46 3e 39 c2 cc bc 03 4c 84 3e
       0.19364911 -0.024994956 0.25839242

module.feature_extraction.block0.0.1.2.weight f4 [1, 1, 3, 3]
000000 1a f8 19 3f aa 54 6d be 26 27 24 3f 36 73 0b 3f
       0.601442 -0.23176828 0.64122236 0.5447267
000010 93 30 b4 be e9 41 04 3f 5f c5 12 3f 0a 9e 39 be
       -0.3519331 0.5166307 0.57332414 -0.18126693
000020 af 23 c7 3e
       0.38894412

module.feature_extraction.block0.1.1.2.weight f4 [2, 1, 3, 3]
000000 88 3f 94 3f a6 0e f6 3d 1f d6 9c 3d 75 78 77 be
       1.1581888 0.12014513 0.07658028 -0.24167044
000010 bd c5 48 be 46 3f a5 bd bc a8 0f bf 9c a1 be be
       -0.19606681 -0.08068709 -0.56116843 -0.37232673
000020 17 c4 11 3d 10 a3 5f bd e8 50 84 3e 10 56 29 be
       0.035587396 -0.054598868 0.25842977 -0.16536736
000030 78 40 c4 3c f2 63 c0 3f 4c bb 90 be b8 03 cf bd
       0.023956522 1.5030501 -0.28267896 -0.10108131
000040 4f db 2a be 47 60 a2 3d
       -0.16685222 0.0792852

module.feature_extraction.block0.1.2.0.weight f4 [2]
000000 70 26 2d 3f d9 99 0e 3f
       0.67636776 0.557035

module.feature_extraction.block0.1.2.0.bias f4 [2]
000000 20 8d d5 3d 71 f8 7f 3f
       0.10427308 0.99988467

module.feature_extraction.block0.1.2.0.running_mean f4 [2]
000000 61 23 57 bd 18 d7 5a 3f
       -0.052523974 0.85484457

module.feature_extraction.block0.1.2.0.running_var f4 [2]
000000 3d 4e 9a 3d e3 40 02 3e
       0.07534454 0.12720065

module.feature_extraction.block0.1.2.2.weight f4 [2, 2, 3, 3]
000000 8c 7c 38 3e e1 d1 a4 bd 53 ff 7b 3e ef 67 15 be
       0.18016261 -0.08047844 0.24609117 -0.14590429
000010 31 dd 96 be 68 a3 97 bd 2f 2e 05 bf dc 93 11 bf
       -0.2946563 -0.07404214 -0.52023596 -0.5686624
000020 37 ec e7 bd 4b d5 9e 3d 50 c7 9e be bb f1 b2 be
       -0.11324351 0.07755526 -0.31011438 -0.3495005
000030 61 b8 84 bf 51 10 de bf b8 15 01 bf 1a 07 0a be
       -1.0368768 -1.7348729 -0.50423765 -0.13479272
000040 a8 f6 2f be c6 80 cf bb f5 de 68 bd f8 62 ad 3c
       -0.17183936 -0.0063324897 -0.056853253 0.021165356
000050 52 ee 61 bd d7 ca 0a 3e 00 e4 9b 3e 12 bf 9f 3d
       -0.05515892 0.1355394 0.30447388 0.07800116
000060 af fd cc 3e 74 e4 55 3f b7 ff cf 3e 46 e9 30 be
       0.40037295 0.83551717 0.40624782 -0.17276487
000070 a0 f6 b3 bd dc 39 79 3d 2d 0b 95 3f ed 9e 19 3f
       -0.08787274 0.060846195 1.1644036 0.60008126
000080 bf b1 10 3d fc 99 ea be 7c 20 9c be a4 8d d0 3b
       0.035325762 -0.45820606 -0.30493534 0.006364541

module.feature_extraction.blocks.0.1.0.weight f4 [2]
000000 0b 67 cf 3e 7e 6c fc 3e
       0.40508303 0.49301523

module.feature_extraction.blocks.0.1.0.bias f4 [2]
000000 84 8b 89 3f e2 16 5a 3f
       1.0745702 0.85191166

module.feature_extraction.blocks.0.1.0.running_mean f4 [2]
000000 fa 2b 80 c0 cc 4b df 3f
       -4.005368 1.7445006

module.feature_extraction.blocks.0.1.0.running_var f4 [2]
000000 e0 09 9f 40 70 94 b1 3f
       4.9699554 1.3873425

module.feature_extraction.blocks.0.1.2.weight f4 [4, 2, 3, 3]
000000 df ae 0c 3e 58 2f 28 3e e3 c6 d8 3d f1 3b ad 3e
       0.13738583 0.1642431 0.1058481 0.33834794
000010 99 9e 09 3e d6 9f 36 3e 16 5f 98 be 97 79 05 3f
       0.13439406 0.1783441 -0.29760045 0.52138656
000020 57 29 99 be 33 c4 0b be 18 e3 9b bc 47 80 13 bd
       -0.29914352 -0.13649063 -0.019029185 -0.036011007
000030 59 d2 bf 3e c7 d5 fa 3f 36 3f aa 3d d8 cb c0 3b
       0.3746517 1.959649 0.08312838 0.005883675
000040 1e 67 38 3e f7 5f c0 3d 40 26 b5 3e bf d1 ba be
       0.18008086 0.09393304 0.35380745 -0.3648815
000050 d2 ea ae bd 77 b5 98 bf 5f 95 03 c0 4b d1 ab 3d
       -0.08540882 -1.1930379 -2.055992 0.08389529
000060 b8 79 bc 3e 93 d1 34 be 4d 69 36 bd f6 90 59 bc
       0.36811614 -0.17658071 -0.044534016 -0.01327919
000070 6c 1b f2 3d 4a 34 a9 bd 27 f9 0d 3d 2e 1b 4e 3e
       0.118216366 -0.082619265 0.03466144 0.20127556
000080 51 c9 99 bd 03 82 8b bb 0d cb 75 bd 2c 87 8f bd
       -0.07509101 -0.004257442 -0.060008097 -0.07008204
000090 d2 92 a6 3c db 71 29 be f5 46 9d 3d c8 e2 b3 3e
       0.020333681 -0.16547339 0.076795496 0.35133958
0000a0 42 3f a8 3e 58 70 6e bd e6 60 b6 be dc 1a 28 bf
       0.32860762 -0.058212608 -0.35620803 -0.65665984
0000b0 74 12 28 bd 13 ee d6 3c fa be e6 bc 37 bb df 3b
       -0.041033223 0.02623657 -0.028167237 0.0068277377
0000c0 c3 de 75 be 46 e9 cf bf 8a d1 64 bc a0 1f 2a bd
       -0.24010758 -1.6243064 -0.013965974 -0.041534066
0000d0 a2 7e 89 bd 04 bc 58 3d a6 22 71 bd a2 dc f1 bd
       -0.067136064 0.05291368 -0.058870934 -0.118096605
0000e0 fd c8 25 3e 3d c0 3b be 6e a3 1d bf 1c 25 1d bf
       0.16189952 -0.18335052 -0.615775 -0.6138475
0000f0 1d 1b 24 3e 0e 39 64 3f 93 a0 b3 3e f4 0a 86 bc
       0.16025968 0.8914956 0.35083446 -0.016362645
000100 ae 46 5d bd 2e 15 73 bd 90 2c b0 bd 03 90 1b 3f
       -0.054022484 -0.05934637 -0.086022496 0.6076662
000110 c3 ac c7 3e 36 37 15 bd 91 12 3b be d6 79 87 be
       0.38998994 -0.036429606 -0.18268801 -0.2646014

module.feature_extraction.blocks.0.2.0.weight f4 [4]
000000 9f 3e d7 3e fa 3a 4b 3f 94 a3 b4 3f f2 53 0f 3f
       0.42039964 0.79386866 1.411242 0.55987465

module.feature_extraction.blocks.0.2.0.bias f4 [4]
000000 c9 5a c3 3e 6b 18 ad 3f da 05 d3 be cc 1f 4e 3e
       0.381552 1.3523077 -0.41215402 0.20129317

module.feature_extraction.blocks.0.2.0.running_mean f4 [4]
000000 26 67 4b 40 52 a0 52 c0 92 35 09 c0 c9 51 55 3e
       3.1781707 -3.2910352 -2.1438947 0.2083198

module.feature_extraction.blocks.0.2.0.running_var f4 [4]
000000 24 77 8b 3f 0b 22 cd 3f 14 4d 73 3f 0a 15 e5 3e
       1.0895734 1.6026014 0.95039487 0.44742614

module.feature_extraction.blocks.0.2.2.weight f4 [4, 4, 3, 3]
000000 5a 2f dc 3d 6b f9 7f be f5 5f b2 3e 00 14 56 be
       0.10751219 -0.24997489 0.34838834 -0.20906067
000010 ba 72 e6 be 18 15 de bd fa ca 36 3d 9d be aa bd
       -0.45009404 -0.10843867 0.044627167 -0.08337138
000020 58 47 b3 3d fd 85 dd 3d 1a 10 c3 be 72 0b dd be
       0.08753842 0.10816572 -0.38098222 -0.43172795
000030 2d c9 9f bd d9 da 03 3f 89 21 f9 3e c2 f5 74 3d
       -0.07802043 0.5150581 0.48658398 0.059804685
000040 40 66 0c 3e e1 f7 da 3c 5a 12 4b 3f 51 c4 a2 3f
       0.1371088 0.026729526 0.7932488 1.2716161
000050 92 56 66 3f 89 58 21 bc b9 97 3c be d2 e3 14 be
       0.89975846 -0.009847769 -0.18417253 -0.14540032
000060 11 d8 5f bc 5f 76 4e bd e0 94 27 bd 7d 4c 8f bf
       -0.013662354 -0.050405856 -0.040913463 -1.1195217
000070 dd 2a bb bf 49 b7 d3 be 81 94 12 3e 56 5d 99 bd
       -1.4622456 -0.41350773 0.14314462 -0.074885055
000080 5d 17 c6 3d a8 45 4b 3d ba d2 85 bd 6b 06 0a bd
       0.09672425 0.049626976 -0.065343335 -0.033697527
000090 18 0c e7 be c9 2a 4d bf 04 3e a9 be 2f f8 c9 3c
       -0.45126414 -0.8014341 -0.33055127 0.024654476
0000a0 3c c1 cd be 3e c5 4d be 9b 0d 3c 3c be b7 24 bd
       -0.4018649 -0.20094773 0.011477853 -0.040214293
0000b0 b6 c0 33 be 52 31 7e 3d f3 0b 77 3d da 16 a6 3d
       -0.17553982 0.062058754 0.06031413 0.08109827
0000c0 d9 7a ae bd c8 8f dd bf 5e b9 a0 be 49 7e 93 be
       -0.08519525 -1.7309504 -0.31391424 -0.28807285
0000d0 bc 6b 8f bf a2 2a 3c be ae 74 dc 3d 32 ed 6c 3e
       -1.1204753 -0.18375638 0.107644424 0.23137358
0000e0 e0 31 e9 3d 05 a8 43 3e af bb 11 3f 12 19 73 3e
       0.11386466 0.19107063 0.5692701 0.23740032
0000f0 da 54 90 bd 9f 8f 31 bd 29 86 0b 3d a3 d7 26 be
       -0.07047434 -0.04334986 0.034063492 -0.16293196
000100 72 ff 5e be 30 2e 43 3d 86 87 a8 be 94 2d 84 be
       -0.21777132 0.04765147 -0.32915896 -0.25816023
000110 c3 f8 c1 3d 0b 32 62 3e 85 ec fe 3d d4 f2 1e bc
       0.09471276 0.22089402 0.12447456 -0.009701449
000120 6b 18 a8 3d ed 26 e3 3e 92 29 9a 3e 3d b1 c1 be
       0.08207782 0.44365636 0.3010984 -0.37830535
000130 8f 2f 66 bf ed 18 76 be fc 12 8d bd 51 09 ec bc
       -0.8991632 -0.24032946 -0.068883866 -0.028813036
000140 5a 31 8c 3d 2b ff a3 bd 56 f8 c0 3e 88 af 4e be
       0.068453506 -0.08007654 0.37689465 -0.20184147
000150 08 6a c2 3e 5e 9a ce 3f 84 31 2d 3f 32 fd a9 3e
       0.3797152 1.6140859 0.6765368 0.33200985
000160 ea f4 eb 3e 64 29 16 bb b7 f6 69 be 66 92 0d bf
       0.46085292 -0.0022912854 -0.2284802 -0.5530151
000170 7a c6 97 3c 3d e0 e1 be 77 5b 78 bf e9 5a 34 bf
       0.018527258 -0.44116393 -0.97014564 -0.7045122
000180 66 53 d2 bd c6 19 51 be 84 12 b6 bd 5c 1e 87 bc
       -0.10269813 -0.20419988 -0.0889025 -0.016493969
000190 b4 86 7c be 75 9f 92 3c fd e6 a6 3e 48 76 b7 3e
       -0.2466076 0.0178983 0.32598105 0.3583243
0001a0 26 3f be 3d 5c e8 04 bc 51 83 be bb e7 40 1f bc
       0.09289388 -0.008112039 -0.005813994 -0.009720064
0001b0 6d ad 67 3c 1a 7a 44 3f a2 a0 21 be 9c 2c 9b 3e
       0.014140469 0.7674881 -0.15783933 0.30307472
0001c0 20 76 a8 3e 73 58 91 3e df 68 05 bc c8 b3 2e bd
       0.32902622 0.28387794 -0.008142679 -0.04265192
0001d0 c6 c1 9d bd 0e aa 14 be 1e c7 9a 3e c6 85 fb 3e
       -0.07702975 -0.14517996 0.3023004 0.491255
0001e0 63 90 3e 3d a0 bb 9b bf 04 72 45 bf a4 46 fa bd
       0.046524417 -1.2166634 -0.771271 -0.12220505
0001f0 f8 03 d9 be 6d bf 27 3e 60 ed e9 be 72 d5 c0 bf
       -0.4238584 0.16381617 -0.45688915 -1.5065138
000200 4a dc 0d bf 7f ea 19 3e 6c 09 c8 3e 71 60 0f 3e
       -0.5541426 0.1503086 0.39069688 0.14001633
000210 43 ff 36 3d 66 44 80 ba a0 b1 e4 3c 10 01 ea 3e
       0.04467703 -0.0009786009 0.02791673 0.45703936
000220 cb 9d 10 3f c9 12 3e 3d 6b 9e 59 be bf f6 63 be
       0.5649077 0.046404634 -0.21251838 -0.22262095
000230 ce 21 75 bd 88 e7 87 3d 2f 44 8d bd f6 a7 fb 3b
       -0.05984669 0.06635958 -0.068977706 0.0076799346

module.feature_extraction.blocks.1.1.0.weight f4 [4]
000000 90 0f c5 3e d4 eb c3 3e 42 70 02 3f 4a c3 05 3f
       0.38488436 0.3826586 0.5095254 0.5225111

module.feature_extraction.blocks.1.1.0.bias f4 [4]
000000 da e8 38 3f 47 92 83 3f e4 a7 96 3f 35 4c 8d 3f
       0.72230303 1.0279015 1.1769986 1.1038882

module.feature_extraction.blocks.1.1.0.running_mean f4 [4]
000000 2f 3f b0 3f a2 e9 94 c0 f4 df 93 40 76 48 66 bf
       1.3769282 -4.6535196 4.621088 -0.89954317

module.feature_extraction.blocks.1.1.0.running_var f4 [4]
000000 a4 91 0f 40 50 9f f6 40 1f 42 03 41 bc 8c 89 40
       2.2432642 7.7069473 8.203643 4.2984295

module.feature_extraction.blocks.1.1.2.weight f4 [8, 4, 3, 3]
000000 6c 34 99 bd 62 24 ca bd 5f 36 78 bc ad 04 60 bd
       -0.07480702 -0.09870221 -0.015149682 -0.05469196
000010 07 08 74 3f 0e d8 08 3c d8 1b 83 3d 9f d0 0e bc
       0.9532475 0.008352293 0.06401795 -0.008716731
000020 4d aa 0e bc d6 f2 1c 3d 1c 28 b9 3e bf 19 dc bd
       -0.008707595 0.038317524 0.36163414 -0.10747098
000030 15 34 bf 3d e6 4f dc bf 19 99 04 3e 15 ba 55 bd
       0.09336106 -1.7211883 0.12949027 -0.052179415
000040 a1 a7 5d be f8 84 83 3d 5e 47 32 be c8 95 2f bf
       -0.21645977 0.06421846 -0.17410037 -0.68587923
000050 71 0e 8f bd 3a c5 9d be 9b 37 aa 3f dd bf 72 be
       -0.06985176 -0.30814534 1.329822 -0.23706003
000060 2b af d4 bb e1 47 91 3d 77 b0 2a bd 3b 40 a7 bc
       -0.006490608 0.07093788 -0.041672196 -0.02041637
000070 ac c7 77 3e 99 05 c3 3d 62 14 08 3e 0e 6a 07 bf
       0.24197263 0.09522552 0.13289025 -0.528962
000080 20 d5 7e 3d bf 0a 0d 3d 28 28 3b 3d ce ae d1 bc
       0.06221497 0.034434076 0.045692593 -0.025596049
000090 d6 ff 92 bc 83 8a 5b bb 3f 88 2c bc 2a 6a 2c bc
       -0.017944258 -0.0033499307 -0.0105305305 -0.010523358
0000a0 d3 97 4f bf 21 c1 e5 bc 7a 69 06 bd 12 b4 6a bd
       -0.8109104 -0.028046193 -0.032815434 -0.057300635
0000b0 e8 c1 0b be ca c0 90 3c d5 04 9e 3e fd 32 fd 3c
       -0.13648188 0.017670054 0.30863062 0.030908102
0000c0 bf a0 0c be be 4e a9 3e 29 98 ed 3d e6 08 db bd
       -0.13733195 0.33067888 0.11601288 -0.106950566
0000d0 5e 68 c4 3d ff 9f 90 be b0 ab 1e be 16 3a 1e be
       0.09590219 -0.28247067 -0.15495181 -0.15451846
0000e0 d7 bf 5b be 59 9f 69 3e 36 3e e0 be 4c ba b4 3d
       -0.214599 0.22814693 -0.43797463 0.08824596
0000f0 b7 ea 21 bd a7 c3 a1 3d ba dd 19 3e 5b 6d 80 3a
       -0.039530482 0.07898646 0.15025988 0.0009798215
000100 82 31 63 bd d7 5c 56 bd a8 9d 21 3e 8c ca 1a c0
       -0.055467136 -0.052334633 0.15782797 -2.4186125
000110 ae c6 3b 3e 17 10 75 bc 49 d8 9c be 2c 20 f1 3d
       0.18337509 -0.014957449 -0.30633762 0.117737144
000120 8d e7 48 b8 06 e2 f8 bd 4f 8e d0 bd db c3 03 3e
       -4.7899364e-05 -0.121524855 -0.10183393 0.12867682
000130 7f 95 ce be 48 df fd bc c1 57 5a bd 1f 71 b3 bd
       -0.4034843 -0.030990258 -0.053306345 -0.087618105
000140 0c c4 0f 3d 80 24 4b be b4 97 18 3f b4 d0 33 3e
       0.035099074 -0.19838142 0.5960648 0.17560083
000150 7f d2 a0 3e 33 7e f8 bf f4 28 78 be 27 4f 07 bc
       0.31410596 -1.9413513 -0.24234372 -0.0082586175
000160 00 e1 1a bd af 98 6c 3d f1 a7 1f 3d a5 2b 0b bf
       -0.037812233 0.057762798 0.03897852 -0.5436347
000170 7e 95 88 be fe 3e f6 bd 2a c6 83 3f 47 9e 59 3e
       -0.26676553 -0.120237336 1.029485 0.21251784
000180 14 c8 dc 3b 20 a1 82 3d 5f 14 5d bd 20 0c 7b bd
       0.0067377184 0.063783884 -0.053974506 -0.06129086
000190 51 3d 8e 3c b3 c8 e4 3c 7a 3c 27 be 32 5b a3 3f
       0.017363222 0.027927732 -0.16331664 1.2762206
0001a0 87 00 6c 3e 4c 0a 16 bd 92 20 ea bd c6 fa c3 bc
       0.23047076 -0.036630914 -0.114319935 -0.023923289
0001b0 e9 99 09 bd 28 50 3b be ea 95 93 bd f2 7a 78 be
       -0.033594046 -0.18292296 -0.07206328 -0.2426565
0001c0 1c 67 b5 bf f1 7d 28 be 36 e4 43 bb ab 17 9f 3d
       -1.4172091 -0.16454293 -0.0029890663 0.07768186
0001d0 1d f5 0b bd bd 3e d1 3e 28 94 ce be 9d 50 b3 3d
       -0.034169305 0.40868178 -0.4034741 0.0875561
0001e0 61 97 49 3e 7e bf 47 be 87 aa 5d be a9 d3 35 3d
       0.19686653 -0.19506642 -0.21647082 0.044391308
0001f0 ac ba 40 ba 7e 09 dd 3d 08 4f 97 3c 75 e7 ad 3e
       -0.0007352035 0.10792826 0.018470302 0.3396565
000200 95 06 80 3c b6 70 a8 be 7b 68 89 bf 3d da bf bd
       0.015628139 -0.32898492 -1.073501 -0.093677975
000210 2c b9 cd 3c 21 da 2d bd 26 a3 20 3c 5a 00 1b bd
       0.02511271 -0.042444352 0.009804523 -0.037842132
000220 c4 90 d2 be 0d d8 35 3d 46 79 c5 be 2e e1 87 bf
       -0.41126072 0.044395495 -0.38569087 -1.0615594
000230 06 67 33 be 8f cc 25 3d bf 04 9e be 8d c4 02 3b
       -0.17519769 0.040478285 -0.30862996 0.001995358
000240 31 73 55 3d b9 bf 73 bc 8b 05 cd bd c5 ae 27 bf
       0.05211181 -0.014877253 -0.10010823 -0.6550105
000250 ab 6d f4 bf 6c f1 57 3e ee 1c 33 be e7 fa 07 be
       -1.9095968 0.21088189 -0.17491505 -0.13279305
000260 43 dc be bd 7e 9a f1 bd 4a e0 e0 be ef 05 08 be
       -0.09319355 -0.11797045 -0.4392112 -0.13283513
000270 0e 4b 7d 3e b6 53 20 be 00 d5 c1 3e a7 87 e2 3d
       0.24735662 -0.15656933 0.3785782 0.1106103
000280 5f 3b e1 bd fc 72 d9 bc c5 8f bb 3e de 07 73 3e
       -0.10997652 -0.026544087 0.36633125 0.2373347
000290 0f 7c c8 3d 5f 6d 0c bd 5a de ba be eb c1 e8 bd
       0.09789287 -0.034283992 -0.36497766 -0.11365112
0002a0 56 de cf bd 32 8b 91 bd 68 ac ad bd 1e 34 df bd
       -0.10149829 -0.071066275 -0.084801495 -0.108986124
0002b0 5e d4 1a bf 10 69 a7 be bf b1 a3 be 3a 8a 8f be
       -0.60480297 -0.32697344 -0.31971547 -0.28035146
0002c0 27 c0 71 be 72 1c 60 bc 17 84 f2 bd 15 71 c7 3d
       -0.23608457 -0.013678657 -0.118416004 0.097383656
0002d0 aa 00 2c bd 17 69 be bd 10 d8 bf bc 8b 28 1f 3e
       -0.04199282 -0.09297388 -0.023418456 0.1554281
0002e0 31 c5 8a bf 3a 8a 42 be 34 ef f1 3c 4b d5 c5 3d
       -1.0841428 -0.18998042 0.029533006 0.09659823
0002f0 2b f0 8d 3c 9c a4 8a 3d 18 33 00 bf b4 d8 24 ba
       0.017326435 0.06769678 -0.5007796 -0.0006288395
000300 c4 cd 0a be 3b ae 49 3f 80 45 32 3e 59 63 11 3e
       -0.13555056 0.7878148 0.17409325 0.14198054
000310 ac ac 80 bd 66 41 84 3d 93 89 48 3e 94 f3 08 3e
       -0.062829345 0.06457786 0.1958373 0.13374168
000320 35 1c b7 3e 27 b2 90 3d d5 5e e2 bf ad 50 c5 be
       0.35763708 0.0706523 -1.768519 -0.38538113
000330 50 30 84 bd 47 3a 1d bf 6c dc a6 bc 1d 7a b5 3b
       -0.064545274 -0.6141705 -0.020368777 0.0055382387
000340 51 82 79 bd ff 34 8f bd 11 da 38 be e7 87 64 bc
       -0.060915295 -0.0699253 -0.18051936 -0.013948417
000350 4d 36 2a be fc 56 b1 bd 9a a1 f3 be e7 3c ab bd
       -0.16622277 -0.08659169 -0.4758423 -0.083612256
000360 f2 09 9a bd 91 da 2f be 1a fa 5c bc 22 d1 7c 3e
       -0.07521428 -0.1717322 -0.013487363 0.24689153
000370 20 be 0c 3d fb 70 c2 3c e1 0a a5 bd 6b f7 b0 bd
       0.034361005 0.023735514 -0.080587156 -0.08640941
000380 7f a7 da bc 28 13 06 be a9 b1 8a be dc d4 0c be
       -0.026691196 -0.13093245 -0.2708867 -0.13753074
000390 31 63 d2 3d 5f d6 91 3f 2e 11 4d 3d a5 22 01 be
       0.102728255 1.1393546 0.050065212 -0.12610872
0003a0 3e 8a 5f 3e 7a 8e c6 bd 9b af 3d be 3f 6a 6d bf
       0.21830079 -0.09695144 -0.1852402 -0.92740244
0003b0 60 90 3c bd 43 b9 a3 3d b6 c5 60 bf ed 84 6a 3e
       -0.046036124 0.0799432 -0.8780168 0.2290227
0003c0 f7 1a 3b 3e 35 a9 af be f1 50 d8 3d 11 66 10 bd
       0.18272005 -0.34308782 0.10562313 -0.035253588
0003d0 a7 30 24 3e 87 6e 55 bc f5 a1 f1 bd 1a 78 fd 3f
       0.16034184 -0.01302684 -0.11798469 1.9802277
0003e0 6e 88 20 be eb 30 62 bd 94 e1 da bd 99 ba 81 3b
       -0.15677044 -0.055222433 -0.10687557 0.0039590118
0003f0 e0 11 a0 bd 04 54 8d 3e 6d e6 b7 3d 84 c0 4f 3c
       -0.078159094 0.2760316 0.08979497 0.012680177

module.feature_extraction.blocks.1.2.0.weight f4 [8]
000000 6e 78 44 3f 10 f5 01 3f 0b 28 1b 3f 02 a5 50 3f
       0.7674626 0.5076456 0.60607976 0.8150178
000010 c9 94 d5 3e f7 ba 59 3f 40 35 53 3f 12 87 f7 3e
       0.41715077 0.8505091 0.8250313 0.48345238

module.feature_extraction.blocks.1.2.0.bias f4 [8]
000000 06 65 c3 3f b7 4c 3b 3f ae 64 b4 3f 51 62 80 bf
       1.5265205 0.7316393 1.4093225 -1.0030004
000010 2c 3b 48 be cf 9c 35 bf eb 55 45 3f e3 68 4a 3f
       -0.19553822 -0.70942396 0.77084225 0.79066294

module.feature_extraction.blocks.1.2.0.running_mean f4 [8]
000000 fa ec 71 bf 19 71 63 c0 e5 93 dd bc 43 9b a9 c0
       -0.9450222 -3.553778 -0.02704806 -5.300203
000010 71 37 8b c0 41 69 7a c0 eb 4c 0a 3f 3c 2e fb 3f
       -4.3505177 -3.9126742 0.5402362 1.9623485

module.feature_extraction.blocks.1.2.0.running_var f4 [8]
000000 5c f2 80 3f 7c 54 a9 3f 3d 49 0e 3f f1 15 82 3f
       1.0073962 1.3228908 0.555805 1.0162946
000010 4e d9 f9 3f 80 19 f3 3f 6e 1d 48 40 b6 f6 ce 3e
       1.9519441 1.8992157 3.1267962 0.404226
