results/finetune_anynet/checkpoint.tar (torch_old, 592121 bytes, 300 tensors)

module.refine_spn.0.0.weight f4 [16, 3, 3, 3]
000000 12 9d f8 3d 55 f2 b7 3c 19 84 a1 3d ca d0 f7 3d
       0.12139334 0.02245442 0.07886524 0.1210037
000010 13 6d 47 3e cd 95 65 be d8 eb 90 3d ef 58 12 3e
       0.19475202 -0.22420426 0.070762336 0.14291738
000020 33 9e 15 3e ec c7 13 3e cb 8b 46 be 43 2b 51 bd
       0.1461113 0.14431733 -0.19389264 -0.05106665
000030 32 f6 48 3e de 4e 78 bd 0d 0f f5 bd 13 45 13 bc
       0.19625166 -0.06062209 -0.11965761 -0.008988637
000040 64 fb b6 3c a4 63 89 bd b1 ae a3 bd 9f 86 57 be
       0.02233667 -0.06708458 -0.07992304 -0.21047448
000050 68 1b 09 be 67 ec f3 bd fb 21 d7 3d 38 d0 21 bc
       -0.13389361 -0.119103245 0.10504528 -0.009876303
000060 72 5b f0 bd 84 5d 36 3c f4 86 b1 3c 8f 99 11 3e
       -0.11736192 0.011130694 0.021670796 0.14218734
000070 fa 33 99 bd 79 80 51 bd df 09 ab 3d 6e 67 e9 3c
       -0.07480617 -0.05114791 0.08351492 0.028491702
000080 7b 74 38 3e 42 24 cd 3c 5c b4 1a 3e 0a a6 7e 3c
       0.18013184 0.025041703 0.15107864 0.0155425165
000090 1e fb 07 3e 1c 7c 3b 3d 07 a4 3c be e1 b4 34 3c
       0.13279387 0.045772657 -0.18421946 0.011029453
0000a0 8d a9 74 bd 5b 15 20 3e 65 90 38 3e b9 f8 e7 3a
       -0.05973201 0.15633146 0.18023832 0.0017698026
0000b0 49 34 55 3e 61 b7 de bd 99 4a 5b bd fa 9f 1d be
       0.20820726 -0.108748205 -0.05353794 -0.15393057
0000c0 f5 cf 98 3d 4e 6f 16 be 6f eb e0 bd 51 44 59 bc
       0.0746154 -0.14690897 -0.109824054 -0.013260917
0000d0 7d 55 b7 bd d9 64 f8 bd 14 a9 47 3e bd 27 06 be
       -0.089518525 -0.1212861 0.19498092 -0.13101096
0000e0 d3 77 1b be ab 77 31 3d 58 f1 9d be fc ab 01 3b
       -0.15182428 0.043327015 -0.30848193 0.0019786349
0000f0 25 d6 e9 bd 5a 8d cb bd cf f0 19 3d 94 8c c8 3d
       -0.11417798 -0.0993907 0.03758317 0.09792438
000100 c7 4f fe 3c ae 98 12 be 34 58 16 3e 17 c4 ed bd
       0.0310439 -0.14316055 0.14682084 -0.11609667
000110 ce 4b ac 3d c1 88 51 bc b9 8e 16 3d 88 b3 18 3e
       0.08412896 -0.012788952 0.036757205 0.14912236
000120 63 6c e6 3d 5e 67 5b bd 7e 55 d7 bb 0b 88 69 bc
       0.11251142 -0.053565376 -0.0065714708 -0.014253627
000130 80 50 7b bd 04 48 c4 3c 91 ef ce 3d 0c 23 64 3e
       -0.061356068 0.023960121 0.101042874 0.22278994
000140 46 ef bb 3d 3b 40 00 be ae 26 8a 3d 0c 2a 84 3d
       0.09176497 -0.12524502 0.06745659 0.06453332
000150 09 08 42 3e f3 95 54 3d d3 a8 8c bd 4e 8b 01 3e
       0.18948378 0.051900815 -0.06868138 0.12650797
000160 da 5b 0a 3d bb b0 4a be 04 f3 3f 3e 38 2c b7 ba
       0.033779003 -0.1979398 0.18745047 -0.001397497
000170 fa d4 f6 3b 22 f8 4b 3d 9f 8e c0 bc c1 52 81 bd
       0.007532713 0.049797185 -0.023505507 -0.06314612
000180 c7 f6 a9 3d 25 04 b2 3b 2a b6 41 be 61 1b c9 bd
       0.08299022 0.005432623 -0.18917146 -0.09819675
000190 80 2f 00 3d 2c 30 43 bd 8f fc bb 3c ea 5f 06 bd
       0.0312953 -0.047653362 0.022947578 -0.032806315
0001a0 62 95 15 bd 29 c4 5d be f8 0a 33 bd ec ec 8b 3e
       -0.036519416 -0.2165686 -0.043711632 0.27329195
0001b0 bc e9 3c 3e f8 7d 96 3c 64 1d 14 3d ac 9c 86 bd
       0.18448538 0.018370613 0.03616084 -0.065728515
0001c0 e2 5b 84 bd 2c 2c 05 3d 85 8f 00 be cc 51 34 3e
       -0.06462838 0.03251283 -0.12554748 0.17609328
0001d0 61 de e8 3c 13 e2 3c be 45 3e b8 bd 91 2c 00 be
       0.028426351 -0.18445615 -0.08996252 -0.12517
0001e0 82 fa a8 3b 5f b4 1f be 8c 36 86 bd 1d 52 50 bd
       0.005156816 -0.1559615 -0.06553373 -0.05085956
0001f0 0b 31 2e ba 14 83 3a bc cf 05 b8 3d 3a eb e3 3d
       -0.0006644881 -0.0113837905 0.08985483 0.1112885
000200 c5 40 c8 3d 8f 37 80 3e ec 6d ae bd 8d 82 c0 3d
       0.09777979 0.25042388 -0.0851706 0.093999006
000210 84 eb f5 3d c3 bc c2 3d 80 4a 86 3d db e2 29 3e
       0.12007812 0.0950866 0.065571785 0.16590445
000220 e3 e9 f2 3d 14 4c 40 bc dc e0 d4 3c cb 45 18 bd
       0.118610166 -0.011736888 0.025986128 -0.037175935
000230 f0 38 1f bc 89 68 22 be 20 93 1f bd e4 a8 18 be
       -0.009718165 -0.1586019 -0.03895867 -0.14908177
000240 e6 2c 9b 3a 05 96 5f 3e 35 d9 cb bc 6e c7 14 be
       0.0011838942 0.21834572 -0.024883846 -0.14529201
000250 e6 79 6c 3d 22 29 81 bd c2 de 51 be 02 fa 67 bd
       0.05773344 -0.063066736 -0.20495132 -0.05663491
000260 22 97 04 bd 5a a3 8f 3b 54 f1 89 bd 39 64 db bd
       -0.032370694 0.0043834867 -0.06735483 -0.10712475
000270 c9 5a cb 3d 82 95 7a bc 98 4d 2e bd 31 d7 20 3c
       0.09929425 -0.0152944345 -0.042554468 0.009816931
000280 0e 3f 31 3d 83 c3 03 3d 09 1d c9 bd f7 27 a1 3e
       0.043273024 0.032168876 -0.09819991 0.31475803
000290 74 c5 03 bd d3 81 b4 bd 0e 38 ac 3d 20 7c 41 3e
       -0.032170728 -0.088138245 0.08409129 0.18895006
0002a0 88 74 9d bd 65 10 65 3c 3a ac 16 3c f1 45 f5 3c
       -0.07688242 0.01398096 0.009196335 0.029940577
0002b0 7c 92 87 3e 37 01 8f bd 52 81 b4 3d 30 f6 36 3d
       0.26478946 -0.069826536 0.088137284 0.044668376
0002c0 d3 8f ab 3c 86 1d 6a bd 44 0b 8f 3d b3 59 69 3c
       0.020942604 -0.057157062 0.069845706 0.014242577
0002d0 32 67 41 be f1 cf 21 be 51 d5 a8 bd 8c 9b 6c 3d
       -0.18887022 -0.1580198 -0.08243812 0.05776553
0002e0 38 ec 36 3c 8a ed 72 bd 71 a4 14 3e 8a a0 e4 bd
       0.011164717 -0.059308566 0.14515854 -0.11163433
0002f0 b3 25 a4 bd 00 7e 7c bd c6 32 07 be e3 4d 7b bd
       -0.08015003 -0.0616436 -0.13202962 -0.061353575
000300 3e 1c b8 bb a9 37 10 3e 0c 38 b7 3d 14 20 c6 bd
       -0.005618601 0.14083733 0.08946237 -0.09674087
000310 fb 47 10 3d 60 de 33 bd ae ba 41 bd ba da 9f bc
       0.035224896 -0.043913245 -0.047297172 -0.019513477
000320 7b d5 00 3d 4a ac a7 bd 60 7b 4d bc a4 4a 81 3d
       0.03145359 -0.081871584 -0.012541622 0.06313065
000330 3a 44 0b 3e 74 de df bc 11 a6 9c bb 98 84 e2 bd
       0.13600245 -0.027327754 -0.004780539 -0.110604465
000340 b4 67 78 bc 9f e4 37 bd c2 4a 69 be 83 81 fe 3c
       -0.0151614435 -0.044895764 -0.22782424 0.031067615
000350 03 53 97 bd aa ac f6 3d 0d 3b d3 3c fd 59 1c 3d
       -0.0738888 0.12044652 0.025784994 0.038171757
000360 17 a1 8b 3d 6c 44 0a 3e 3b 0c 0e 3e d5 7d c6 3d
       0.06817835 0.13502663 0.13871853 0.09691969
000370 00 eb 89 3c 4b 92 a5 bd 18 b3 d2 bb b5 78 de bb
       0.01683569 -0.08084544 -0.006430041 -0.0067892917
000380 57 61 a7 3d 06 f2 8f 3e 28 98 9b 3e e1 ac 26 3e
       0.08172863 0.28114337 0.30389524 0.16276886
000390 f9 a6 0f 3d 09 d0 05 be 7d c9 05 3d 03 2a a8 3c
       0.035071347 -0.1306764 0.032662857 0.020527845
0003a0 43 d5 9d 3e 30 51 44 3d 25 eb c6 bd d7 67 37 be
       0.30826768 0.04792899 -0.09712819 -0.17910706
0003b0 7c ff aa bd de b3 f5 3c 31 53 38 3e 62 2b 22 be
       -0.08349511 0.029992994 0.18000485 -0.15836862
0003c0 b5 d3 75 3d 95 a2 12 3e ab 85 ed bc 62 7e 1f 3d
       0.060016353 0.14319833 -0.028994402 0.038938887
0003d0 21 04 e8 3c c9 b9 25 be a3 18 34 3d f5 84 1c be
       0.028322281 -0.16184153 0.043968808 -0.15285094
0003e0 18 7f 15 3e e8 c6 a1 3c 2d 57 13 3e 1c 0d 68 3e
       0.14599264 0.019748166 0.14388724 0.22661251
0003f0 06 eb 60 bc a0 a5 81 3d b9 eb a5 bd e5 74 f7 3c
       -0.013727909 0.063304186 -0.08101601 0.030207107

module.refine_spn.0.2.weight f4 [16, 16, 3, 3]
000000 46 ab ea 3d 74 dd 05 3e 99 1a 91 bd 37 43 96 3d
       0.11458449 0.13072759 -0.07085151 0.07337039
000010 70 8c 97 bb be 29 a8 bb 92 93 98 bd 77 b5 f1 bd
       -0.0046248958 -0.005131929 -0.07450022 -0.1180219
000020 33 db 31 3e a6 63 9a 3c 9a 6c 1d 3c 26 16 c9 3b
       0.17368774 0.018846344 0.009608412 0.0061366735
000030 5e bc a4 bd ec 77 8b bd 08 1d 5b bd 05 02 93 3d
       -0.08043741 -0.06809983 -0.053494483 0.071781196
000040 c6 84 7e 3e ab 51 a5 bc 91 ce 95 3c 6a 46 01 3e
       0.24855337 -0.020180544 0.018286975 0.12624517
000050 02 5a a4 bd 72 2c 06 bd 44 f4 ea bc 8f 78 19 bc
       -0.0802498 -0.03275723 -0.028680928 -0.009367122
000060 76 fe 12 bd 71 9c a5 3c 66 52 eb bd 34 cc 9c 3d
       -0.035887204 0.020216199 -0.11490326 0.07656136
000070 c1 db 86 3d 2e d0 a1 3d 34 90 bb 3d c4 12 76 bd
       0.065848835 0.07901035 0.09158364 -0.06007649
000080 82 cc c4 bd dc b4 1b bc 5a 9d 21 3e b9 15 cb 3d
       -0.09609319 -0.009503569 0.15782681 0.09916253
000090 0f 43 dd 3d 22 bd 19 be 92 35 af 3d 53 9a a0 3d
       0.10803806 -0.15013555 0.085551396 0.07841935
0000a0 6d 42 39 3e fe 9d 79 3b d5 92 80 3d 15 10 4f be
       0.18091746 0.0038088555 0.06278006 -0.20220979
0000b0 58 6b c6 3c 35 df 7c 3d 56 2a 7c 3e 3e 8b 8a 3c
       0.024221107 0.061736304 0.24625525 0.016912099
0000c0 0d 47 46 be 63 93 a1 bc 9c 99 ac 3c c8 07 45 bb
       -0.19363041 -0.0197236 0.02106934 -0.0030064452
0000d0 e6 06 90 bd b8 ce 40 3e d4 dd 56 bd fc 69 c0 3d
       -0.07032566 0.18828857 -0.052457646 0.09395215
0000e0 59 fd 37 bd c1 c7 21 be 78 ef c2 3c 15 3c 7a 3d
       -0.044919346 -0.15798856 0.023795828 0.061092455
0000f0 3a e8 38 3e 65 aa ee bd fa 2c 32 bd 7c 45 71 be
       0.18057337 -0.11653594 -0.043499924 -0.23561662
000100 ab be 4d 3e fe 83 e8 3d e9 f8 f7 3d 06 31 28 3e
       0.20092265 0.113533005 0.12108023 0.16424951
000110 fc 30 31 bd 7a 79 e6 3d 29 d6 ce bd c5 55 a0 bd
       -0.043259606 0.112536386 -0.100994416 -0.07828859
000120 67 fb 07 bc 30 eb 3a 3e 83 c9 73 3d 62 ce 2c 3e
       -0.008299685 0.1825378 0.05951835 0.16875604
000130 59 7c 31 be 4b b2 8c be 4a b9 a1 3d 4a b1 65 3b
       -0.17332591 -0.27479777 0.07896669 0.00350483
000140 bd be a4 bc 7d b4 9f 3d b4 30 7b 3e be aa b2 3d
       -0.020110482 0.07798097 0.24530298 0.08723973
000150 f7 b1 c9 bd 9d 4b f2 3d a4 82 02 3e 35 62 73 bc
       -0.09848397 0.11830828 0.12745148 -0.014854957
000160 74 28 3e 3d ce 97 0f be da 04 0f 3c 88 7e 3f 3d
       0.046425298 -0.14022753 0.008729184 0.04675153
000170 25 c9 1d 3e 50 bc fe 3d 8b bc 19 3e 8c b9 80 3d
       0.15408762 0.124382615 0.1501333 0.0628539
000180 32 b8 3c 3d 28 bc 0a 3e db 12 bd bd 1c 24 1c be
       0.0460741 0.13548338 -0.09232112 -0.1524815
000190 34 ce 00 3e 36 51 92 3c bc e4 88 3a 75 ef dd 3d
       0.1257866 0.01786099 0.0010444145 0.108366884
0001a0 0e 99 a5 3d e9 b7 32 bd 4e 75 c6 bd 04 b4 76 3e
       0.080858335 -0.04363242 -0.09690343 0.24092108
0001b0 e1 aa e5 bd f3 46 50 3e 42 9d 7a 3e 95 e3 ae 3d
       -0.11214233 0.20339565 0.24474052 0.085395016
0001c0 44 3a be 3c 65 a5 25 be 11 7d 2e bd e8 c9 80 3d
       0.023221143 -0.16176374 -0.04259974 0.062885106
0001d0 a0 75 1d be 8c 9b c0 3d 90 6c bf bd da 45 26 3b
       -0.15376902 0.09404668 -0.093468785 0.0025371225
0001e0 d0 7c 5e 3b 00 bb a7 bd 0e 8f 68 3d e5 4a 5c 3c
       0.0033948906 -0.08189964 0.056777053 0.013445591
0001f0 20 90 e3 3c f6 ec 31 3c 63 3f d2 bc 99 06 2b 3e
       0.027778685 0.010859719 -0.02566499 0.16701736
000200 cd e0 d7 bd 1b 95 26 bd c4 4d bf bd b2 b0 e0 3d
       -0.10540924 -0.04066954 -0.093410045 0.10971202
000210 3f ce 93 bd 39 04 9b bd 1b b6 cc 3c 01 72 0b 3c
       -0.07217073 -0.07569165 0.024989178 0.008511067
000220 e3 68 d4 3d 9f db e5 bb 00 1d 47 3e 18 16 75 be
       0.10371568 -0.0070147063 0.19444656 -0.2393421
000230 f2 2c 4e 3d 20 6b d0 3d b4 0d 06 be 08 25 06 be
       0.050335832 0.101766825 -0.13091165 -0.13100064
000240 4e 89 8c bd 9a 63 6b be 74 51 00 be a7 ac be 3d
       -0.06862126 -0.22987214 -0.12531072 0.093102746
000250 41 87 87 bc 00 79 2d 3e 35 dd 4d 3e 67 43 eb bc
       -0.016543986 0.16940689 0.20103915 -0.028718663
000260 c0 4b 8c 3e 62 71 af 3c 9c 22 fc bd 0d 4f cd bd
       0.27401543 0.02141637 -0.12311289 -0.10024843
000270 3f 25 1e 3c 70 8d 5b 3d 5c c9 aa bd 46 f4 8b be
       0.009652435 0.053601682 -0.083391875 -0.27334803
000280 a1 f8 11 bd 0d fd 74 3d 83 3f dd bb 53 c4 fe bd
       -0.0356375 0.05981164 -0.006751956 -0.124397896
000290 05 e7 1b bc e8 70 1b bd c6 54 40 bd b9 d0 56 be
       -0.009515529 -0.037949473 -0.046955846 -0.20978059
0002a0 97 cc dd bc af 73 02 be c0 6c 0f 3e ac c4 17 3d
       -0.027075095 -0.12739442 0.14006329 0.037052795
0002b0 03 ec 19 3b 68 58 24 3e 92 d1 2c be 4a 58 cc 3b
       0.0023486621 0.1604935 -0.1687682 0.006236111
0002c0 9d ca a5 be 8b d1 ce bd 3a 62 82 be 14 92 0f be
       -0.32381144 -0.10098561 -0.25465566 -0.14020568
0002d0 24 e0 1b bd 4a 10 4d be 4a e9 1b be 0c 67 44 be
       -0.038055554 -0.20025745 -0.15225711 -0.19179934
0002e0 ad 72 4d be 75 6b e3 3b 14 d4 bb bd 87 c2 f0 bd
       -0.20063277 0.0069403 -0.0917131 -0.11755853
0002f0 69 81 b7 3d e0 be 92 bd b2 4b e2 bd 25 db 15 3e
       0.0896023 -0.07165313 -0.11049594 0.14634378
000300 ee ab 7d bc e6 3c 12 3d 20 a9 2a 3d 36 e6 02 be
       -0.015482886 0.03570261 0.041665196 -0.12783131
000310 1d 3f d2 3c 8d 3c 8f bc b5 9b 0b 3d a6 66 34 bd
       0.02566486 -0.017484928 0.03408404 -0.044043206
000320 dc 8e 33 bd 21 b0 8f bd 1f 89 69 3b a9 25 91 3e
       -0.043837413 -0.07016016 0.003563471 0.28349045
000330 a6 7f 78 be ad 53 15 3b 6b b1 9e be 07 9c 89 3e
       -0.24267444 0.002278547 -0.30994734 0.26876852
000340 78 33 4a 3c 87 ba 25 bd 6c 14 46 3c 29 48 4f bd
       0.012341373 -0.04046109 0.01208983 -0.050605927
000350 0d 92 bc bd 64 ab 5e bc 19 98 80 bd f5 0d 1a bd
       -0.092075445 -0.013590667 -0.0627901 -0.037610967
000360 b9 88 04 3e 52 ce 2a be b1 5e 69 3d 32 7b d1 3c
       0.1294278 -0.16680267 0.05697507 0.02557144
000370 17 d1 2f be be f1 1f be 09 87 6c 3d 7c 54 9c 3d
       -0.17169605 -0.15619561 0.057745967 0.076333016
000380 fb 91 bc 3d ab a6 bb bd e9 3b a5 3c 13 57 a2 3d
       0.09207531 -0.09162649 0.020170169 0.07926764
000390 c9 39 fe 3d 77 3f 85 3c 4b 1b 1c bd 52 93 01 bd
       0.124133654 0.016265614 -0.038111966 -0.031634636
0003a0 d9 45 dd bd e2 23 03 be 80 8c 31 be 60 6c 18 3e
       -0.10804338 -0.12806657 -0.17338753 0.14885092
0003b0 d6 82 18 3e 95 77 26 be 03 41 27 3d 48 33 8b be
       0.1489366 -0.16256554 0.040833484 -0.27187562
0003c0 07 dd 10 3e f1 a2 f9 3c 05 7c d0 bd 76 c7 bd 3e
       0.14146815 0.030473204 -0.10179905 0.3706624
0003d0 c1 8a e8 3c e0 7e d7 3d d6 1e 03 bd 9f 74 6d be
       0.028386476 0.10522246 -0.03201183 -0.23189019
0003e0 9a a8 f1 bd 9c 49 6a bc 6c cc 30 bd f9 39 c9 bd
       -0.11799736 -0.014299776 -0.043163702 -0.098255105
0003f0 0a fb d3 3d c5 72 c8 bb 00 a0 cd 3d 02 f3 33 3e
       0.10350616 -0.006117197 0.10040283 0.17573169

module.refine_spn.0.4.weight f4 [16, 16, 3, 3]
000000 5c 8a 00 be db 12 1e be cd d2 28 be a5 7d 28 3c
       -0.1255278 -0.1543688 -0.16486664 0.010283862
000010 a1 da 25 3c 11 90 a0 3d f1 83 24 bd ac 36 5c bd
       0.010122926 0.078399785 -0.04016489 -0.053763077
000020 bd bc e9 3d 4f 64 05 3e ac a0 6f bd 49 d0 00 3e
       0.11412952 0.13026546 -0.058502838 0.12579454
000030 2a a5 68 bd 07 1a a9 3d e4 11 77 3e e0 eb 00 3e
       -0.056798138 0.082569174 0.24127918 0.12589979
000040 05 af 5a bd e9 48 35 bd 51 be 23 3d c3 6e 5a be
       -0.053389568 -0.044258986 0.03997642 -0.21331315
000050 69 7c 2f bd 26 ae 80 bd 9e 6a 99 be cd f9 36 bd
       -0.042843256 -0.06283216 -0.29964155 -0.044671822
000060 ab cf 77 3e 11 1c 16 bd c0 fd bf bd 64 6b f7 3d
       0.24200313 -0.03664786 -0.09374571 0.1208103
000070 1a a4 a1 bc 59 1e 82 3e 4c b2 37 3c d1 77 10 bd
       -0.01973157 0.25413778 0.011211943 -0.035270516
000080 71 be 83 be 8d e1 ef bd 8d 39 8c be 2f 06 13 bc
       -0.25731233 -0.11712942 -0.27387658 -0.008973642
000090 dc 33 1f be 4b 24 f1 bc 71 91 de 3d 7e 18 c7 bd
       -0.15547127 -0.029436251 0.108675845 -0.097214684
0000a0 ca 24 c5 3d 25 ab 80 bd 4c f1 c4 3d c8 39 92 3d
       0.096261576 -0.06282643 0.09616336 0.07139927
0000b0 2a 40 c8 3d 42 7a 0a 3e 25 3b 73 bd c0 f1 43 3e
       0.09777863 0.135232 -0.059382576 0.19135189
0000c0 95 7e a3 3d 33 50 77 3a bb b2 eb bd 41 d9 84 be
       0.07983128 0.0009434253 -0.115086995 -0.25947002
0000d0 f7 7e db 3d 5f 3a 7c bd eb 49 a4 be 24 94 5f 3d
       0.10717576 -0.061579105 -0.32087645 0.054584637
0000e0 7f 6e b8 bd 56 19 d5 bd 2c 6b bb 3d 59 f2 a1 bd
       -0.090054505 -0.10405223 0.09151301 -0.07907552
0000f0 27 e9 8b 3e 6c 25 7d 3e 96 cd 37 3d 01 ba d1 3d
       0.2732632 0.24721307 0.044873796 0.102405556
000100 e3 43 36 be c7 22 89 3d b1 a0 85 3d ff 6b ad bc
       -0.17799334 0.066960864 0.0652479 -0.02116966
000110 eb 39 1e bd 37 40 5c bd b4 e2 a0 3d e5 20 9b 3d
       -0.038629454 -0.053772178 0.0785574 0.075746335
000120 9d 9b b0 3d 5c 0b cd bc 50 ac e2 3d fc 58 50 be
       0.08623431 -0.02502983 0.11068022 -0.20346445
000130 4f cb 4f 3e 0e 79 19 3d 13 bb 34 bb 21 df 1b bc
       0.202924 0.037468962 -0.0027577325 -0.009513647
000140 e1 5b fd bd 53 2e 7f 3d 5f 06 10 3d bc f1 6f be
       -0.1237104 0.062300038 0.035162326 -0.23432058
000150 90 27 ad bd 33 10 fe bd 84 6a d9 bd 52 35 a4 be
       -0.084548116 -0.124054335 -0.10616019 -0.3207193
000160 a5 9c e2 3c 72 19 06 be 86 bd 0b 3d 7d 38 7f 3e
       0.027662585 -0.13095644 0.03411629 0.24923892
000170 b7 50 99 3d 9c 3e f8 bd b7 2b d3 bd 40 91 3a 3c
       0.07486098 -0.12121317 -0.10311072 0.011387169
000180 dd 42 e2 bd 35 82 5e 3d f2 e3 f7 bc 45 ae cd bd
       -0.110479094 0.054323394 -0.03026006 -0.10043005
000190 1e 23 e9 bd 77 cd 91 bd fa 00 eb 3c 1e 10 6c bd
       -0.11383651 -0.071192674 0.02868699 -0.057632558
0001a0 4b 14 28 3e 3e 3a 5d be 9d 19 9e bc 35 7e 7b bb
       0.16413991 -0.21604249 -0.019299323 -0.0038374786
0001b0 29 19 1b be e1 b4 7d be ce 11 c1 3d 5a 87 7d 3d
       -0.15146317 -0.24776031 0.09427224 0.06189666
0001c0 77 0f 07 bc 92 dc 83 bd 9c 0f 9e bd 45 81 c5 bd
       -0.008243433 -0.06438555 -0.07717821 -0.09643797
0001d0 f3 70 18 3e e7 bd 00 bd b2 3a 0c 3e 8b 22 ea 3c
       0.14886837 -0.031431105 0.13694265 0.028580924
0001e0 14 34 d6 3d 79 3f 9b 3e 68 d5 44 3e f1 ea a9 bd
       0.10459152 0.30321863 0.19222033 -0.08296765
0001f0 74 ae 75 bd 7f 5e 06 bd 2a a5 87 3d 4c 1c f5 3b
       -0.059980825 -0.032804962 0.066232994 0.00748018
000200 c4 41 e4 3d be a9 91 bd 5f 77 c0 bc 1f a6 33 be
       0.11145356 -0.07112454 -0.02349442 -0.17543839
000210 94 83 9f bc 28 d6 ec bd 0a 84 41 3c 1c c3 06 3e
       -0.019471921 -0.115642846 0.011811266 0.13160366
000220 64 37 eb bd 00 2f 94 3d 25 30 66 3e 30 3c 54 3e
       -0.11485174 0.07235527 0.22479303 0.20726085
000230 09 2a a9 bd 97 20 a1 bd 9c 35 4d bd 70 1b b3 bd
       -0.08259971 -0.07867544 -0.050099954 -0.08745468
000240 81 6d 5e be 7d 7d 3f 3e a9 cf f6 bc b5 e1 b4 3c
       -0.2172146 0.18700214 -0.030128317 0.022080282
000250 20 35 3a be b0 ad 0b be 87 04 bf 3d 0c b2 08 3e
       -0.18184328 -0.13640475 0.093270354 0.1334917
000260 0e 65 83 bd 9b 97 dd 39 fa 4e 46 3e d6 f0 7e be
       -0.06415759 0.0004226536 0.19366065 -0.24896559
000270 01 a2 df 3d 65 43 38 3e 82 df 56 bd f5 11 c4 3c
       0.10919572 0.17994459 -0.052459247 0.023934344
000280 88 f7 db bd d8 76 b8 3d b5 26 20 bd a7 36 90 3d
       -0.10740572 0.09007043 -0.039099414 0.07041674
000290 40 8c 64 3d f4 33 3e be 63 0e 9e 3d ae 77 8a 3c
       0.055797815 -0.18574506 0.07717588 0.01690277
0002a0 34 e0 ce bc 29 36 3b bc e2 44 f7 3d bf 35 a5 3d
       -0.025253393 -0.011426487 0.12073685 0.08066892
0002b0 90 8d 1a 3e f8 f9 57 be 35 d2 a0 bc 70 6d 0a 3e
       0.15093064 -0.2109145 -0.019631485 0.1351831
0002c0 c2 61 06 3e a8 cd 11 3e 71 14 16 be 06 c9 49 3e
       0.13123229 0.14238608 -0.14656235 0.1970559
0002d0 7f ad e7 bb cd fd 83 3d 4b 2b fc 3d c1 f2 6c bc
       -0.007070243 0.06444893 0.12312945 -0.014462174
0002e0 1f bf bc bd 7d ed a9 3d 7d 53 19 3d b8 c0 15 3d
       -0.09216141 0.082972504 0.037433136 0.036560744
0002f0 0f d5 a8 3b b9 0c 5e 3e 17 5b 24 bd 1b f0 56 bd
       0.0051523517 0.21684541 -0.040125933 -0.052475076
000300 ef f1 ed bd d1 72 12 3e e0 23 e4 3c ef 83 1c 3d
       -0.11618411 0.14301611 0.027849138 0.03821176
000310 a4 b2 21 3d e6 e4 2e 3e 6a b2 f8 3d 51 35 30 3e
       0.039477006 0.17079505 0.12143405 0.17207839
000320 3d 88 11 be 9b cd ac 3c 9e 6e 3e 3e 41 6c 3b be
       -0.14212127 0.021094134 0.18596885 -0.18303014
000330 e2 74 9e 3d 6f 5b b9 3d 5e 0f 44 3e 8a 8c 43 be
       0.077371374 0.09050643 0.19146487 -0.1909658
000340 f6 34 86 bc d0 26 51 bb a3 25 04 bd cf ae 05 be
       -0.016382676 -0.0031914003 -0.032262456 -0.13054965
000350 f9 02 d5 3d 26 69 8a 3e a2 fb a2 bb ae d5 8d bd
       0.104009576 0.27033347 -0.0049738446 -0.06925522
000360 40 c3 61 3d e9 ef 46 3d c5 3b 03 3e 25 6e dc 3c
       0.055117846 0.04856864 0.12815769 0.02690799
000370 3b 6a 44 3d 81 be 42 3e fc a1 e5 bb c9 73 38 3e
       0.04795287 0.19017984 -0.0070078354 0.18012919
000380 33 37 3e 3c 50 79 39 3d c1 ea f7 bd ad c2 54 bd
       0.01160984 0.04528171 -0.12105323 -0.05194347
000390 ba dd 1a 3c 06 e8 66 bd 1b e3 ab 3e 34 c0 ed bd
       0.009452278 -0.05637362 0.33571705 -0.116089255
0003a0 ba 0d a5 bd 23 33 0a be 5c 58 c2 3d 08 01 8a 3d
       -0.08059259 -0.1349607 0.094895095 0.06738478
0003b0 cd db fa bd 12 45 fb 3d 39 69 9d bd 7b 0e 24 3d
       -0.12248955 0.122690335 -0.07686085 0.040052872
0003c0 98 db ba b8 f9 50 bc bc 42 ba a8 bc 01 11 4f 3e
       -8.910074e-05 -0.02298783 -0.020596627 0.2022133
0003d0 7c 63 84 bb 65 04 bb 3d 98 28 a5 3a 34 f6 1d be
       -0.00404018 0.091316976 0.0012600599 -0.1542595
0003e0 9e 7c b0 3c a6 ae 66 bd d3 d9 e5 3d a4 ab d7 3d
       0.021543797 -0.0563189 0.11223187 0.10530785
0003f0 9a 86 a3 bd 08 a0 ae bc 76 16 17 3e 50 c6 60 bd
       -0.079846576 -0.021316543 0.14754662 -0.054876626

module.refine_spn.0.6.weight f4 [24, 16, 3, 3]
000000 c0 f7 4c 3c 0e be b0 3c e7 5f 6c bc 1d 4a 5c be
       0.01251024 0.021575 -0.014427162 -0.21512647
000010 1c 21 0f 3d 92 48 3a be 6b 33 35 be 62 7b b7 bd
       0.034943685 -0.18191746 -0.17695396 -0.0895908
000020 68 d2 45 bd 08 cf cf bc cb 4b a7 3d 99 54 6e 3c
       -0.048296362 -0.025367275 0.08168753 0.014546537
000030 5c 61 b2 3d 03 77 7a be 3f f5 96 3d 60 2f 76 bd
       0.08709976 -0.24459462 0.07370996 -0.060103774
000040 d0 ac 2b 3d c3 88 2a 3d a3 52 a3 3d 2a 89 2c 3d
       0.041912854 0.041634332 0.07974746 0.042122997
000050 41 68 d1 3c 4d 9a dd 3d 6c df ef 3d 88 8b 9c bd
       0.025562407 0.10820446 0.11712536 -0.07643801
000060 a2 48 94 3d 94 69 9a 3d d3 5e 0e 3e d8 76 35 bd
       0.07240416 0.07539669 0.1390336 -0.04430279
000070 c8 23 40 3c 73 38 44 3c 27 32 90 3d 09 61 cc 3d
       0.011727281 0.011976349 0.07040816 0.099794455
000080 dc e3 d8 bd ae 05 a5 3d 19 56 33 bc 0e 07 f1 bd
       -0.10590336 0.08057724 -0.01094582 -0.11768924
000090 68 26 48 bd af f7 9d 3c c6 25 b0 3d a2 16 fd 3d
       -0.048864752 0.019283144 0.08600955 0.123578325
0000a0 34 63 2c be ff 84 08 bd d5 99 51 3e 04 32 b6 3c
       -0.16834718 -0.03332996 0.20468839 0.022240646
0000b0 51 47 da 3c 3e 10 c0 3d 54 51 00 be 2f 2a 86 bd
       0.026645334 0.09378098 -0.12531024 -0.06551015
0000c0 54 c1 b5 bd 4a 87 ff 3c a1 54 87 bd 46 26 24 3e
       -0.08874765 0.03119244 -0.066079386 0.16030225
0000d0 a7 ef 4d 3d 7b 71 ea 3d 18 fe 22 3d 37 e4 17 3e
       0.05027738 0.11447426 0.039793104 0.14833151
0000e0 c4 df 29 3c d3 ff f0 3d 98 7e b9 bc 49 9c 4c 3e
       0.010368291 0.117675446 -0.022643372 0.19981493
0000f0 f1 b0 7e 3d 09 21 bc 3d a9 18 0b bc 49 24 8e 3d
       0.062180463 0.091859885 -0.008489766 0.069405146
000100 ed 75 0f 3d 9a 08 8c bc df 44 9a bd fb 88 8f bd
       0.035024572 -0.017093945 -0.07532667 -0.07008549
000110 ea 93 79 3d 62 d7 fa bd f9 41 10 be 91 23 21 3e
       0.060932077 -0.12248112 -0.14087667 0.15736224
000120 a7 5b bb bb c0 64 cd 3c 14 21 72 be bb 0e 98 bd
       -0.005717713 0.025072455 -0.23645431 -0.074246846
000130 cd 23 eb 3d 53 15 8f 3d e3 c1 04 3d c2 19 03 3e
       0.11481438 0.06986489 0.032411467 0.12802795
000140 c8 aa 8d 3c 47 76 cd bb dd 91 05 3e 0d 2a d0 3d
       0.017293349 -0.0062702033 0.13043924 0.101642706
000150 78 30 21 3e 09 7d ad bd f7 61 b2 bb 3e 67 32 3e
       0.15741146 -0.08471114 -0.005443807 0.17422196
000160 12 6f c6 bc 40 a3 84 3d 35 01 61 bc 18 ec c9 bd
       -0.024222884 0.0647645 -0.013733198 -0.098594844
000170 7c d9 6f 3e de e1 41 3d b9 fe 19 bc 1b ee b3 3c
       0.23422807 0.047334544 -0.0093991095 0.021964123
000180 ab 92 26 be 1a 50 f2 3b 14 73 d9 3d 90 58 bd 3d
       -0.16266887 0.0073948028 0.106176525 0.092454076
000190 08 81 d0 bc 1c 6a 2a bd e4 9c 06 3d 88 6e 69 3b
       -0.025452152 -0.0416051 0.032864466 0.003561886
0001a0 4b 13 b5 3d d6 77 b9 3d e3 16 5c bd 3d 0c b6 3d
       0.088415705 0.0905606 -0.053732764 0.08889053
0001b0 7a b3 2b 3e e0 c1 27 3d 86 30 2d bc 10 97 ec 3d
       0.16767684 0.040956378 -0.010570651 0.115522504
0001c0 7e e4 b5 bd 98 e7 1d 3e 15 e1 07 3d 7f 49 d9 bc
       -0.08881472 0.15420377 0.03317364 -0.026524303
0001d0 7f ae b3 bd 3f 77 e0 3d 91 43 40 3d b1 fc c4 3d
       -0.08773517 0.109602444 0.046939436 0.096185096
0001e0 6f 65 c0 bc e1 a0 ef bd e0 79 80 bd 79 58 b9 3d
       -0.023485867 -0.11700607 -0.06273246 0.09050078
0001f0 de c4 8d 3e 07 72 0c be 39 bd 80 bd c2 47 43 3e
       0.2768926 -0.13715373 -0.06286091 0.19070342
000200 91 a9 81 3b a9 ab 1c 3d 21 e3 1f be bb cd 0f be
       0.0039569815 0.038249645 -0.15613987 -0.14043324
000210 dd 3f b4 3d f1 d1 9c bd 99 fa 87 bc 60 2d 5e bd
       0.088012435 -0.07657231 -0.016598986 -0.05424249
000220 39 df 81 bd e0 03 6b 3e 4f 1d 5c bd 4d ec 32 bd
       -0.063414045 0.22950697 -0.05373889 -0.043682385
000230 8b 31 fa bd a1 e2 f3 bc 47 02 e1 bc d2 1f f1 3d
       -0.12216481 -0.029771151 -0.027466906 0.11773647
000240 02 c5 8b 3d 01 0c 89 3b 02 01 36 3c ad fd d7 3d
       0.06824686 0.004182339 0.011108639 0.10546432
000250 52 7a d9 bc 20 92 51 3e 02 b2 e7 bd 80 07 35 be
       -0.026547585 0.20465899 -0.11313249 -0.17678642
000260 3c 61 1c bd 71 e7 77 bd 1f e0 18 be 91 8b 05 bc
       -0.038178667 -0.060523454 -0.14929245 -0.008150951
000270 75 25 14 3e 2f 9d 16 3d 97 2f 74 bc 1a aa 0d 3b
       0.14467414 0.036770996 -0.014903924 0.002161628
000280 d0 a7 02 bc 72 82 fc bc 71 41 35 3e ee 7f 9e 3d
       -0.00797458 -0.03082392 0.17700745 0.077392444
000290 e8 70 1c 3c 05 8e f1 bd ed 64 1d be 65 1f 2f 3e
       0.009548403 -0.11794666 -0.15370531 0.1710182
0002a0 62 a8 16 be 5f 92 cb bd 35 e8 ae bd 71 f3 0f be
       -0.1471267 -0.099400274 -0.08540384 -0.1405771
0002b0 4b ef c2 bd 27 a6 97 3d 04 04 e0 bd fb 93 7f 3d
       -0.09518298 0.07404738 -0.10938266 0.062396985
0002c0 5c de 41 bd 9d 26 8d bd bd 86 c4 bc c0 d7 51 3d
       -0.0473312 -0.068921305 -0.02399003 0.051231146
0002d0 41 2f 76 bc 30 7d 1f bc 7d ad 59 3d 17 2c 9e 3b
       -0.015025915 -0.009734437 0.053143967 0.0048270333
0002e0 99 5b 91 be 62 87 13 be 4a cc 1d bd a0 11 03 be
       -0.28390196 -0.14407113 -0.038524903 -0.12799692
0002f0 cc 63 eb bc 93 3b 66 3d 26 e8 52 3e db 5a 1c 3e
       -0.02873411 0.05620916 0.2059637 0.15269034
000300 92 2b 30 3e e9 da 8d 3c 00 5f 8c 3d 45 60 bc bd
       0.17204121 0.017316299 0.06854057 -0.091980495
000310 84 0c 5c 3e d5 c2 88 3d 7e 13 34 3d a0 95 d4 bd
       0.2148915 0.06677786 0.0439639 -0.10380101
000320 30 36 9a 3d 5e b6 01 be 5d e7 4a 3d 49 24 18 3e
       0.07529867 -0.12667224 0.04953705 0.14857592
000330 ec 1a 83 bd 92 89 4d bc fd 57 2d 3d a4 f4 ed 3d
       -0.06401619 -0.012545006 0.04232024 0.11618927
000340 f1 2d df bd 35 4e cf 3d 34 95 f2 3d 43 63 1a 3e
       -0.108974345 0.10122339 0.118448645 0.15076928
000350 e8 41 7a bd e3 98 be 3c 0b f4 81 bb da d0 64 3d
       -0.06109801 0.023266261 -0.0039658598 0.05586324
000360 30 42 f0 3d 3b ca c9 bd e3 49 01 3c 31 26 15 3d
       0.11731374 -0.098530255 0.007891151 0.036413375
000370 4d 43 f0 3a e9 6a 03 be 6a 09 13 be 56 ce 2c bd
       0.0018330604 -0.12833752 -0.1435906 -0.042188965
000380 f8 27 42 bd 98 b2 87 bd 74 5e cd 3d 23 5c b4 3d
       -0.0474014 -0.06625861 0.10027781 0.08806636
000390 10 b3 20 bd c5 d4 8c be b4 c4 f4 3d 54 fd 3f bd
       -0.039233267 -0.2750608 0.11951581 -0.046872452
0003a0 3b 31 e1 3d 88 32 c1 3c 96 97 52 bd 79 de d9 bd
       0.10995718 0.023583665 -0.051414095 -0.106381364
0003b0 4a 7e a9 3d 74 c4 8d bd c1 4b da bc 3c 72 37 bd
       0.08276041 -0.06922236 -0.02664745 -0.044786677
0003c0 f5 34 01 3e 9c d7 f1 3c 58 01 24 bc 95 79 0a 3e
       0.12617858 0.029521756 -0.010010086 0.13522942
0003d0 ad 91 d4 3d 31 46 96 bd ef bd f9 bd 7c 89 93 bc
       0.10379348 -0.07337607 -0.1219443 -0.018009894
0003e0 81 70 33 bc 59 24 8c 3d 02 7d b3 3d bd 2a 6c 3c
       -0.010952116 0.0684287 0.08764078 0.0144144865
0003f0 10 e5 d0 bc f1 af 91 bd ff c3 9a bd cb cd 2d 3e
       -0.02549985 -0.07113636 -0.075569145 0.16973035

module.refine_spn.1.weight f4 [8, 1, 3, 3]
000000 bf 61 9d be d0 fd 8f 3d 03 fd d1 bc 0b e3 19 be
       -0.30738637 0.07030833 -0.02563334 -0.15028016
000010 16 87 cd be 55 fb 08 3e b8 d6 28 be d8 2d 39 3d
       -0.40142125 0.13377126 -0.16488159 0.045209736
000020 30 41 b6 3d 4f fb 56 be 57 fa fe 3d f6 95 a3 3e
       0.08899152 -0.20994304 0.12450092 0.3195035
000030 87 38 cd bd 55 51 18 be a4 27 06 be ac 72 b2 3e
       -0.10020547 -0.14874776 -0.13101059 0.34853113
000040 b3 8f 11 3e 66 e7 a2 3d 1a 72 af bd 5d 5f 9c bd
       0.14214973 0.07954292 -0.08566685 -0.076353766
000050 1e 6c c3 3c e7 db 96 3e 00 3f 21 3e 48 19 1d 3d
       0.023855265 0.29464647 0.15746689 0.03835419
000060 12 6a 0e 3d 7a 9c 0e bc cf b9 a7 3d 98 98 22 be
       0.034769125 -0.008704299 0.08189737 -0.15878522
000070 36 50 1d be 04 0f 55 3d 68 e8 5d 3e 4f b0 44 be
       -0.1536263 0.052016273 0.21670687 -0.19207881
000080 22 af 18 be 00 16 23 be ff 48 db bc 5b ee 93 bd
       -0.14910558 -0.15926361 -0.026768206 -0.07223197
000090 b7 b7 af 3c 42 da 7d 3e fa 0f 0e 3e 22 ea c4 bd
       0.021449907 0.2479029 0.13873282 -0.0961497
0000a0 d0 77 bb 3d fa 13 3f bd 1c 53 f4 bd 5e b3 21 3b
       0.09153712 -0.04664991 -0.11929914 0.0024673562
0000b0 17 cf 50 be ca af f5 3d cc b8 a4 bd fe 76 7f 3e
       -0.20391499 0.1199642 -0.0804306 0.24947736
0000c0 cb 17 86 bc 5c 67 40 3e 48 be 94 3d 82 ff 34 bc
       -0.016368767 0.18789428 0.07262856 -0.011047246
0000d0 8e bb 81 bd 7a 8b 8e 3e 46 1b 66 be 5a b3 af bd
       -0.06334601 0.27840787 -0.22471341 -0.085791305
0000e0 e4 82 c8 bd c2 35 07 3e fe ff b7 bc 52 98 6a bd
       -0.097905904 0.132041 -0.022460934 -0.05727417
0000f0 90 1d 1d bd cf 9c d5 3d 54 b6 97 be 8b 27 c0 3c
       -0.03835827 0.104302995 -0.29631293 0.023456356
000100 9e 84 89 3d 83 3d 2a 3d 81 ed 17 3d 9a e9 91 3e
       0.06714748 0.04156257 0.037091736 0.28498536
000110 43 a6 4f 3e 76 44 b3 bd 99 fb 0c be 44 91 d2 be
       0.20278268 -0.08753292 -0.13767852 -0.41126454

module.refine_spn.2.weight f4 [1, 8, 3, 3]
000000 0a 62 8d 3e ce 47 56 3e df 4a 1e be fb 83 cc 3d
       0.2761386 0.20925829 -0.15458249 0.09986111
000010 f2 f0 92 bd 4d b8 b2 be c4 fd ff 3e b5 6a a3 be
       -0.07174863 -0.34906235 0.49998295 -0.31917349
000020 b9 47 cc 3d 30 16 00 bf 98 c6 fa 3e 00 57 03 bf
       0.099746175 -0.50033855 0.4897964 -0.51304626
000030 a3 a1 a6 3e 2e 4f 83 bf aa 4c 12 be 38 3a c2 3e
       0.32545194 -1.0258539 -0.14287058 0.37935042
000040 2c 67 28 3d 32 fa ba 3e ae fc 28 3e 6a 33 28 3e
       0.041114017 0.3651901 0.1650264 0.16425863
000050 58 b1 07 3f 2d a7 a2 3d 68 8f 79 3e b2 bf 9f 3e
       0.5300498 0.079420425 0.24371111 0.3120094
000060 b3 d0 41 3e 22 ea cb be d3 fd 22 bf 55 20 07 3f
       0.18927269 -0.39827067 -0.63668555 0.5278371
000070 56 54 32 bf 07 85 43 3f d2 67 94 be 0a 7b 74 bf
       -0.69659936 0.7637486 -0.2898546 -0.9550024
000080 52 50 23 3f 2e 20 73 3f 2f ec 75 3f ef 6b 8f 3f
       0.63794434 0.9497098 0.9606351 1.1204814
000090 29 19 cb bd fb a8 88 3f cb 25 9a bf c6 74 61 bf
       -0.09916908 1.0676569 -1.2042783 -0.8806881
0000a0 55 b1 9d be 04 4b b1 3e 1e 0f 99 be 43 f3 8e 3e
       -0.30799356 0.34627545 -0.29894346 0.2791997
0000b0 f9 86 51 be ad c2 2e bd 45 b3 c3 be cb 63 28 3c
       -0.20461644 -0.042666126 -0.3822271 0.010277699
0000c0 b6 51 83 3e 01 a7 3c bf 32 34 5a bf 21 ad 4e bd
       0.25648278 -0.7369233 -0.85235894 -0.050458077
0000d0 be a8 c1 be 73 c6 a6 3e 99 3b ba be 70 f8 89 be
       -0.37824053 0.3257328 -0.36373594 -0.26947355
0000e0 c7 18 16 3f a2 59 b7 3e 72 f5 da 3d 33 22 ca 3d
       0.5863156 0.35810572 0.10691346 0.09869804
0000f0 a5 de 23 bf 6e ec de 3d d8 69 10 3e 07 5c 88 3e
       -0.64011604 0.10884939 0.14102876 0.2663271
000100 31 3e 31 3f 6a ca 4f bf 1c 7e 37 be 73 bf 16 3f
       0.6923552 -0.81168234 -0.179192 0.5888588
000110 2c 34 94 be 97 c7 53 bf 92 e2 d2 be 94 42 9d 3e
       -0.28946054 -0.82726425 -0.41188484 0.30714858

module.feature_extraction.block0.0.0.weight f4 [1, 3, 3, 3]
000000 2f 07 d5 be 0a b2 fe be 0a 23 ae 3d aa c7 1d 3d
       -0.41607043 -0.49745208 0.08502777 0.038520493
000010 a2 62 14 bd 32 e5 b5 be 39 f9 2b 3f cb 38 9c 3e
       -0.036226876 -0.35526425 0.6717716 0.3051208
000020 02 f2 10 3f 81 5b e1 3e b0 2e 76 be 58 98 35 3f
       0.56619275 0.44015124 -0.24041247 0.70935583
000030 f7 5f 81 3a f9 c4 4f 3f 0d 81 04 bf 3f 9c 0f bf
       0.0009870519 0.8115993 -0.51759416 -0.5609779
000040 70 bc a6 be 5a 9e 05 bf f0 41 b2 be 7c f8 fb 3e
       -0.3256564 -0.5219475 -0.3481593 0.49213016
000050 b5 f6 82 3e 02 19 5b 3d cf c1 2c 3e e1 40 7c 3f
       0.25578848 0.053490646 0.16870807 0.985365
000060 35 5c 62 3d 74 2c 5c 3f be 4e 00 bf
       0.055263717 0.8600533 -0.5012015

module.feature_extraction.block0.0.1.2.weight f4 [1, 1, 3, 3]
000000 03 d6 81 be 4d 01 19 3e b8 ab b4 3e f9 fd f7 be
       -0.2535859 0.14941902 0.3528726 -0.48435953
000010 c6 cc 50 bf 41 29 c8 be 57 34 f6 be 84 47 d0 be
       -0.8156246 -0.39093974 -0.48086807 -0.40679562
000020 ec 0d 9d 3d
       0.07668671

module.feature_extraction.block0.1.1.2.weight f4 [2, 1, 3, 3]
000000 79 9c 6e bd 30 67 f1 be 06 a4 3e 3f b0 2c 83 be
       -0.058254693 -0.47149038 0.7446903 -0.2562003
000010 71 b1 24 bf 88 b3 c5 be f9 34 5c 3e 6d 4d 94 be
       -0.64333254 -0.38613534 0.21504582 -0.2896532
000020 e2 e6 12 3e 04 f5 04 be 68 b2 8f 3d df 9b 43 bb
       0.14345887 -0.12984091 0.0701645 -0.0029847545
000030 56 de 20 bf fe f8 58 3d cc 46 b6 3e 82 f4 ba 3e
       -0.6283926 0.052971832 0.3560089 0.3651467
000040 58 b3 d6 3e 95 65 10 be
       0.41933703 -0.1410125

module.feature_extraction.block0.1.2.0.weight f4 [2]
000000 dd c7 7f 3f 0e 1c 80 3f
       0.9991434 1.0008562

module.feature_extraction.block0.1.2.0.bias f4 [2]
000000 5b c1 f1 b9 44 36 8a 3b
       -0.00046111163 0.0042178947

module.feature_extraction.block0.1.2.0.running_mean f4 [2]
000000 11 77 cf be aa 67 11 3e
       -0.40520528 0.14199701

module.feature_extraction.block0.1.2.0.running_var f4 [2]
000000 d7 1d 09 3e 9d ce 3a 3d
       0.13390289 0.045607198

module.feature_extraction.block0.1.2.2.weight f4 [2, 2, 3, 3]
000000 9a 22 03 3f f6 2a 66 3e 72 36 69 3d 44 d0 0e be
       0.5122467 0.22477326 0.05693669 -0.13946635
000010 99 1e d2 be 3c 22 92 3e 31 45 35 3f 1e 94 bf be
       -0.4103897 0.28541744 0.708087 -0.37417692
000020 64 e2 ac 3d 18 fc c7 be 89 08 be 3c d4 4c cd 3d
       0.08441618 -0.3905952 0.02319743 0.100244194
000030 6d 47 4c be 10 0a 09 bf 16 43 03 be ba de e5 be
       -0.19949122 -0.5353098 -0.1281856 -0.4489649
000040 a3 19 14 3e cb 3a f0 bd af 03 5f be da d5 15 be
       0.14462905 -0.11729964 -0.21778749 -0.14632359
000050 4c 81 5e 3e dd aa 16 bf e8 8b c5 be 52 9e 54 3e
       0.2172901 -0.58854467 -0.38583302 0.2076352
000060 e3 51 1a 3e 89 f2 3c bf 28 e6 1a 3f c4 e2 8b 3e
       0.150703 -0.7380758 0.6050744 0.27321446
000070 ac 64 52 be 93 0e 49 3e db 32 eb 3c 29 7b ad 3e
       -0.20546216 0.19634466 0.028710773 0.33883026
000080 5f 18 a4 3e c7 ca 6f 3e 17 12 86 3f 04 95 97 3e
       0.32049844 0.23417197 1.047427 0.29605877

module.feature_extraction.blocks.0.1.0.weight f4 [2]
000000 cf 83 80 3f 61 f8 7e 3f
       1.0040225 0.99597746

module.feature_extraction.blocks.0.1.0.bias f4 [2]
000000 eb 93 8a 3a 53 ef b6 ba
       0.0010572647 -0.0013956822

module.feature_extraction.blocks.0.1.0.running_mean f4 [2]
000000 5f 5d 0b be d8 f6 4c 3f
       -0.13609837 0.80064154

module.feature_extraction.blocks.0.1.0.running_var f4 [2]
000000 95 a5 9a 3f 76 7d 09 40
       1.2081782 2.1482825

module.feature_extraction.blocks.0.1.2.weight f4 [4, 2, 3, 3]
000000 9c 9c 62 be 19 50 d4 3e 6b 36 6b be 53 0d 25 be
       -0.22130054 0.4146736 -0.22969978 -0.16118364
000010 fd 3b e1 bd 6d fd d4 be 0c ad 34 3e 52 46 d3 3c
       -0.1099777 -0.415996 0.17644137 0.025790367
000020 29 86 3d 3e de 7d 10 3e 18 c8 e3 3d 64 bd 62 3e
       0.1850821 0.14110515 0.11122149 0.2214256
000030 69 8a 25 3e 05 8b 19 bd a2 2e 89 3e 8a d9 22 3f
       0.1616608 -0.037486095 0.2679339 0.6361319
000040 e3 14 86 be 3e f3 4e 3e a7 8a e1 3e 50 ee 0c 3e
       -0.2618781 0.20209977 0.44051096 0.13762784
000050 8a 14 59 3e 46 3b 60 be b2 0d 3d bd 2b da a3 bd
       0.21199241 -0.21897611 -0.04615564 -0.080005966
000060 8b 29 d0 3e 66 36 88 be 27 60 52 3e a4 06 98 3d
       0.40656695 -0.26604003 0.20544492 0.074231416
000070 c6 ab 28 be 58 a8 a0 bd c1 7e ac be 4a 3a b6 3e
       -0.16471776 -0.07844609 -0.33690456 0.35591346
000080 cf fb 3a 3d 86 84 26 3e 98 4d e5 be 05 cb 3a be
       0.0456503 0.16261491 -0.44785762 -0.18241508
000090 a4 bf 90 be 68 92 41 be 72 81 86 be 2e f4 d6 3d
       -0.2827121 -0.18903506 -0.26270634 0.10495792
0000a0 9a 73 22 3e 79 fc a1 be 89 3a bf be 13 75 ae 3d
       0.15864411 -0.31637934 -0.37349346 0.08518424
0000b0 93 ab ce 3d e1 c3 40 3e 89 71 bc bb 8d 84 56 be
       0.10091319 0.18824722 -0.005750839 -0.20949002
0000c0 f4 a4 db 3d 0a d1 65 bd ad 04 ab 3d 78 81 9a 3e
       0.10724822 -0.05610756 0.08350501 0.30176902
0000d0 72 41 1b 3b 45 24 a1 3e b3 af 67 be b6 9f b4 be
       0.0023690131 0.31472984 -0.22625618 -0.352781
0000e0 be 8a 8d 3e 11 4a ce 3e 85 c5 b9 be 27 fc 8e 3e
       0.27644914 0.40290883 -0.36283508 0.27926752
0000f0 77 bc 6b 3f 7c 52 82 bd 3e f1 08 3d 1b ba 19 3e
       0.9208445 -0.06363389 0.03343319 0.150124
000100 54 ca e6 be bf 87 2c 3e d8 fe 18 bd 85 20 28 be
       -0.4507624 0.16848658 -0.037352413 -0.16418655
000110 e7 04 2d be 3f de 12 3f 12 83 ab 3c 5c fa 9b bd
       -0.16896401 0.5737037 0.020936523 -0.07616112

module.feature_extraction.blocks.0.2.0.weight f4 [4]
000000 f6 1a 80 3f 20 93 7f 3f b9 7c 7f 3f f8 48 80 3f
       1.0008228 0.9983387 0.99799687 1.0022268

module.feature_extraction.blocks.0.2.0.bias f4 [4]
000000 bf 75 12 3a 59 21 35 ba db b6 65 ba 84 d1 f9 ba
       0.00055870035 -0.0006909571 -0.00087629043 -0.0019059633

module.feature_extraction.blocks.0.2.0.running_mean f4 [4]
000000 e4 8f e0 3e cf c9 cf 3d c0 2f 00 be 2b cf c7 3e
       0.4385978 0.10145914 -0.12518215 0.39025244

module.feature_extraction.blocks.0.2.0.running_var f4 [4]
000000 f0 27 0e 3f b4 75 cf 3e 9c 22 1e 3f 80 ba bf 3e
       0.5552969 0.40519488 0.6177156 0.37446976

module.feature_extraction.blocks.0.2.2.weight f4 [4, 4, 3, 3]
000000 27 bd ba 3d eb a3 0d bb 9f 0c 88 3e 21 c6 be be
       0.09118109 -0.0021612595 0.2657213 -0.37260535
000010 35 52 c9 3c 62 d7 09 3e 81 9e 9a 3e 68 ff 2d 3e
       0.024575332 0.13461068 0.30199054 0.16991961
000020 5e a7 8e be 64 86 06 3e 02 8d 60 3e 93 56 32 3d
       -0.27862066 0.13137203 0.2192879 0.043539595
000030 b9 e6 22 3e e4 41 05 bf 1c 46 19 be c1 80 20 be
       0.15908326 -0.52053666 -0.14968151 -0.15674116
000040 20 9f a3 be 48 be d3 3c 85 2c af 3d 33 da b7 bc
       -0.3195734 0.02584757 0.08553413 -0.022442913
000050 ed ed 8d 3e ae 44 7a be db 4d 1a bf 08 65 ac 3e
       0.27720585 -0.24440262 -0.6027505 0.3367083
000060 71 d8 b0 be e8 5d d4 3e 82 78 07 bd e9 b1 78 be
       -0.34540132 0.41477895 -0.03307391 -0.24286617
000070 35 d4 29 3d 22 28 8a be 72 40 30 be ae de cb 3c
       0.041462142 -0.26983744 -0.17212084 0.024886455
000080 71 32 51 bc 3f 40 cb 3b 71 18 53 be 10 a7 f9 3c
       -0.012768374 0.006202727 -0.20614792 0.03047517
000090 cc 31 f4 3e ef 0d 8b 3e 65 cb a7 3e 56 59 d5 be
       0.47694242 0.27159068 0.32772365 -0.4166972
0000a0 07 b0 26 be a4 10 ec 3c 4c c1 23 be 07 7f 32 3d
       -0.16278087 0.028816529 -0.15991706 0.043578174
0000b0 1c 18 2b bd 98 e5 36 be ab 38 8c 3e 5b ad e4 3d
       -0.04177104 -0.1786102 0.27386984 0.111658774
0000c0 91 8a 83 be c8 5c e5 bc 3e 3b 9b 3b 7a c6 3c 3e
       -0.25691655 -0.027998343 0.004737287 0.18435088
0000d0 11 91 88 be 41 65 94 be f5 80 76 bd 23 97 38 3c
       -0.26673177 -0.289835 -0.060181577 0.011266503
0000e0 52 75 58 3d 6d f2 d4 be 83 65 de be 8d 1c a6 bd
       0.05284626 -0.41591206 -0.43436822 -0.081109144
0000f0 cb b0 72 be d7 ba a8 be f9 3d 17 3f 22 f8 6d 3e
       -0.23700254 -0.32955047 0.5907894 0.23239186
000100 de bb e2 3d d1 81 54 3e 61 d8 62 bd 4e a5 91 3e
       0.11070989 0.20752646 -0.055382136 0.2844643
000110 d8 97 9c 3e 4e 20 33 be 79 b9 04 bc 02 3a 4c 3e
       0.30584598 -0.17492792 -0.008100861 0.19944003
000120 e8 2a 68 bd cf e4 19 3e 4c 81 0c bb 8c 82 7f bd
       -0.056681544 0.1502869 -0.0021439372 -0.06238036
000130 29 b6 64 3e 98 18 00 be 0a 8b f6 3c fa 43 b2 3e
       0.22335114 -0.12509382 0.030095596 0.34817487
000140 11 59 13 bf d2 54 18 be 8d cd 13 3e f3 59 79 3d
       -0.5755778 -0.14876106 0.1443388 0.060876798
000150 c1 74 d1 bd a2 7e b8 3b 5c 46 a2 3e 0b 26 84 be
       -0.10227347 0.00563033 0.31694305 -0.25810274
000160 a9 6c 2a 3f 68 08 d1 bd e8 b1 90 3e ef 12 dd bd
       0.6657205 -0.102066815 0.28260732 -0.10794627
000170 e6 b7 44 be ad 21 bf bd fe 32 99 3d 24 dd f9 bd
       -0.19210777 -0.09332595 0.07480429 -0.12200382
000180 85 30 81 be e5 cb e6 be 0f 58 9b 3d ac bb a1 3e
       -0.2523233 -0.45077434 0.07585155 0.31588495
000190 c1 bc 99 be 18 39 b9 3b b9 82 80 bc 59 51 3b bd
       -0.3002682 0.005652558 -0.015687333 -0.045731876
0001a0 8d 38 a1 bd 2f 85 2b be ac 2c ad 3d 0c 9e 17 bf
       -0.07872114 -0.16750024 0.08455786 -0.59225535
0001b0 a6 ed 21 be 87 f3 03 be 92 79 12 3d 3f 9c ae bd
       -0.15813312 -0.12885867 0.03576047 -0.08525895
0001c0 39 3b b7 3c 84 cf 24 3e 72 69 70 be 5f 92 12 3f
       0.022367107 0.16094786 -0.23477724 0.57254595
0001d0 51 60 59 be e4 78 ed be bc ea 84 3d 9f 08 13 bd
       -0.21228148 -0.46381295 0.064900845 -0.035896894
0001e0 3c 79 c5 3d 02 10 44 3e a3 ba 59 3e 4f c9 95 be
       0.09642264 0.19146731 0.21262603 -0.2925515
0001f0 bb 10 25 be 87 e8 00 be 73 60 de be 70 a4 f4 3d
       -0.16119663 -0.12588702 -0.4343296 0.119454265
000200 fe 57 4d be 47 f9 17 3d ba 23 71 be 9c 81 02 3e
       -0.20053098 0.037102964 -0.23548785 0.12744755
000210 df 1e b2 bd 23 ea 97 be c9 3f 83 3e 4a 51 ce 3e
       -0.086972944 -0.2967082 0.25634602 0.40296394
000220 4b a7 67 bb 82 9e 5c 3d c9 f1 16 be ec 03 3f 3e
       -0.0035347517 0.053862102 -0.14740671 0.1865384
000230 a0 8b 76 be a4 11 65 3e ed fa 9c 3d fc 70 14 3e
       -0.240767 0.2237001 0.07665048 0.14496225

module.feature_extraction.blocks.1.1.0.weight f4 [4]
000000 07 de 7f 3f a7 a4 7e 3f 88 c6 7f 3f a8 ce 80 3f
       0.9994816 0.9946999 0.9991231 1.0063066

module.feature_extraction.blocks.1.1.0.bias f4 [4]
000000 7c 5e 22 bb 07 3a c7 bb f9 78 e2 ba e5 3a 27 3b
       -0.0024775555 -0.0060799154 -0.0017278484 0.0025517282

module.feature_extraction.blocks.1.1.0.running_mean f4 [4]
000000 a0 12 a4 be f0 e7 67 3e 95 e3 73 be ed f4 9e bd
       -0.3204546 0.22647071 -0.23817284 -0.0776156

module.feature_extraction.blocks.1.1.0.running_var f4 [4]
000000 bc 85 4e 3f 12 a3 1c 3f 33 de 58 3e 43 fe a6 3e
       0.8067281 0.61186326 0.21178512 0.3261586

module.feature_extraction.blocks.1.1.2.weight f4 [8, 4, 3, 3]
000000 e5 66 0f be 36 16 00 bd 4c 0d 1b 3e aa 8c 5d 3d
       -0.14004095 -0.031271182 0.15141791 0.054089226
000010 c3 8e 25 3d 6b 0b 00 bd 5d b8 9a bd f6 88 7f 3e
       0.04041935 -0.03126089 -0.07554696 0.2495459
000020 97 b3 a9 3d ff 85 b6 3d fb ad b1 3d e8 7c 27 3e
       0.08286207 0.089122765 0.08675762 0.16356242
000030 2e 98 98 be 52 1b d1 3d 89 fd 63 be 69 b4 80 3e
       -0.29803604 0.10210289 -0.22264685 0.25137642
000040 54 a6 d3 3d 84 d8 6f bd 84 bf e8 bd 6f 1e 08 3e
       0.10334459 -0.058556095 -0.11364654 0.1329286
000050 91 63 a7 bd 91 42 29 be e7 ae b6 bd d8 e2 5a 3e
       -0.08173288 -0.165293 -0.08920079 0.21375597
000060 c9 ff c0 3c 6b 92 11 be af 05 18 be 89 b8 5f 3b
       0.023559468 -0.1421601 -0.14845918 0.003413709
000070 40 62 42 be cc b0 04 3d de 50 0e be 3d 7d 86 3d
       -0.18982792 0.03239517 -0.13898036 0.06566856
000080 f9 e5 74 bc 20 44 d9 3c c1 dd c7 bd f9 b8 40 3e
       -0.014947408 0.026521742 -0.09759093 0.18820561
000090 ed 1b ac be c2 c2 d5 3d 4e 47 52 be c7 d7 3f be
       -0.33615056 0.10437538 -0.20535013 -0.18734656
0000a0 92 e5 8b be 07 51 69 bb 83 12 2f bd 91 d6 4f be
       -0.27323586 -0.0035601275 -0.042742264 -0.20296694
0000b0 13 08 f2 3c cd 97 18 3e 14 da aa 3d ee bc b7 3c
       0.029544866 0.14901657 0.08342376 0.022428956
0000c0 29 0b 88 3d 33 46 94 be 1e f6 0b bd e9 3c a5 3d
       0.06642754 -0.28959808 -0.034170263 0.08068258
0000d0 3b 63 23 3d 59 d6 1c be 1d 5e b2 3d 88 1b 0a be
       0.039889555 -0.15316142 0.08709357 -0.13487065
0000e0 1c d9 58 3d 7b 27 a8 3d f1 77 95 3d 63 8e 85 3e
       0.052941427 0.08210655 0.07298268 0.26085195
0000f0 74 58 11 3e c9 c8 10 be df 8f c4 be e7 e7 1b be
       0.14193898 -0.14139093 -0.38391015 -0.15225182
000100 1b 2c 0c 3e 40 41 05 be 3e f1 94 bd 07 01 66 3d
       0.136887 -0.13013172 -0.07272576 0.056153324
000110 7b e1 85 3c 45 b5 ff bc 50 a0 ca bd 07 40 3f 3e
       0.016342869 -0.031214366 -0.098938584 0.18676768
000120 66 3b bb bc df 12 24 be 86 27 45 3e d9 a5 f1 3d
       -0.022855472 -0.16022824 0.19253358 0.11799211
000130 0f 57 cb 3d 03 4b 01 3e c9 72 90 3a a9 c9 82 bc
       0.099287145 0.12626271 0.0011020537 -0.0159653
000140 6f 3d 0d be dc 4a f5 bb a1 71 df bc b0 f3 1e be
       -0.13792966 -0.0074857306 -0.027275862 -0.15522647
000150 4a 45 1d be 34 41 ae 3c 92 47 98 3e c7 e2 62 3d
       -0.15358463 0.021271326 0.29742104 0.055392053
000160 d6 50 36 bb 44 ed 79 3e db 3a 5d bd 4d d0 3e be
       -0.0027819178 0.24406916 -0.054011207 -0.18634148
000170 38 1e a3 bd 68 48 41 be a5 a8 e6 3c a7 63 95 be
       -0.07964748 -0.18875277 0.028156588 -0.2917759
000180 10 36 ed bd 14 3f 53 3d 9e 60 0b bd de 9e e8 3c
       -0.11582577 0.051573828 -0.03402769 0.028396066
000190 88 ce 96 bd 0c d2 d7 3d 03 f4 4a bd 15 a9 10 be
       -0.073636115 0.1053811 -0.049549114 -0.14127
0001a0 6b ad 85 be 38 78 3f be 2c 01 1e be b9 fc 8e 3e
       -0.2610887 -0.18698204 -0.15430135 0.27927187
0001b0 b4 83 8c 3e 3a cd 84 bd dd 1c ce 3d 40 15 36 3d
       0.27444232 -0.06484456 0.10064099 0.04445386
0001c0 57 be 78 be 8a 1d e6 bd 0d a9 9f ba 32 54 f6 3d
       -0.24291359 -0.11236103 -0.0012181118 0.12027778
0001d0 c6 a2 5f 3e d3 61 85 3d 3e 8c c0 bc bf 67 15 be
       0.21839437 0.06512799 -0.023504373 -0.14590357
0001e0 2d 8b 41 bb f0 3d aa be d8 63 88 3e a2 4c e7 bd
       -0.0029532418 -0.3325038 0.26638675 -0.112939134
0001f0 f3 dc 5d 3e f5 24 32 be 29 9f df 3d 54 c2 4c 3e
       0.21666317 -0.1739691 0.10919029 0.19996005
000200 95 bf 6b 3c 30 33 04 be 46 bb 90 bb 63 c5 8e be
       0.014388938 -0.12910151 -0.004416856 -0.2788497
000210 16 54 03 bb 44 96 d6 bd 4c 7c 20 3d 87 83 da 3c
       -0.0020039133 -0.1047788 0.03918104 0.026674045
000220 98 7c 97 3d 5b a4 bd 3d 8f dd c2 bd 82 e7 02 be
       0.07396811 0.09259864 -0.09514915 -0.12783626
000230 00 56 4d 3e aa c7 3a 3e ca ae 0a 3c d9 af 18 3d
       0.20052338 0.18240228 0.0084645245 0.037277076
000240 cd 45 83 bc b0 5e 21 be e5 56 41 bd 7a 0b 2c bc
       -0.016024495 -0.15758777 -0.04720201 -0.010500783
000250 71 53 04 be 06 9b eb bd 31 6a 0d 3d 3d 2b 6f 3d
       -0.12922455 -0.11504178 0.0345251 0.058390845
000260 a1 bd 56 bd 84 21 07 3e dc c8 ee bd b3 62 44 bd
       -0.052426938 0.13196379 -0.11659405 -0.04794569
000270 ab ba c1 be 03 1d ff bb a2 b1 5b be c1 54 08 3d
       -0.3783773 -0.007785441 -0.2145448 0.033283953
000280 af 19 11 be e3 f3 84 3e 4d 38 df bd 01 90 69 3d
       -0.14169954 0.2596732 -0.108994104 0.0570221
000290 56 2e 12 3e 93 45 6d 3d 9c 73 9d 3c 45 eb c0 3c
       0.14275488 0.05792768 0.019220166 0.023549685
0002a0 bd c2 bf 3d b6 b1 c9 3e 7c d3 9c bd ca bf d4 3e
       0.09363315 0.39393395 -0.07657525 0.41552573
0002b0 b1 83 dd bd 4d 92 b9 3d 66 4f 1b 3e ac d5 d9 3d
       -0.10816134 0.09061108 0.15167007 0.10636458
0002c0 53 da 60 3d a9 f5 58 bd 82 07 22 be 25 f7 1e be
       0.05489571 -0.052968655 -0.15823177 -0.15523966
0002d0 d6 48 3b 3d ad c8 a3 bd a5 53 dd bb 81 5e 89 be
       0.04572376 -0.0799726 -0.006754356 -0.26829913
0002e0 4f 13 87 3d 66 17 4c 3d e7 3a 3a be d9 48 52 3d
       0.0659548 0.049827002 -0.18186532 0.051339004
0002f0 c6 87 2d 3e 48 31 9c bc e4 1e 64 3c fe 0d a0 be
       0.16946325 -0.019066468 0.0139233805 -0.31260675
000300 a1 ed 2f 3e cb 3c e6 bd 41 67 2f be 9f 9c 9e be
       0.17180492 -0.11242064 -0.17129232 -0.30978867
000310 57 7f cc 3d f9 1c df bd 6e 2f 43 3d 1d b1 7e bd
       0.09985226 -0.10894198 0.047652654 -0.062180627
000320 4b 65 1c be 81 d3 00 3e bf 84 b0 3d 54 f3 de 3e
       -0.15273015 0.12580682 0.08619069 0.4354502
000330 8a cd ae 3c f8 f7 a3 bd cf 60 22 3e a5 ef 76 3e
       0.021338243 -0.08006281 0.15857242 0.24114855
000340 d9 3d 4c 3e f2 e8 51 3d 07 75 db bd 72 f1 f7 3d
       0.19945468 0.051247545 -0.107156806 0.12106599
000350 2d ca cf 3e 77 be 76 3e fe c5 60 bd 4b b3 29 bd
       0.40583935 0.24096094 -0.05487632 -0.041430753
000360 7c e5 e9 bd c5 31 f7 3d 26 12 d9 bd 8b 0d 83 3e
       -0.11420724 0.1207004 -0.10599165 0.2559627
000370 0f 08 01 3a fe 0c f2 3d 81 8a 09 3e 37 1d b6 bb
       0.00049221603 0.11818884 0.13431741 -0.005557682
000380 c1 6f 18 bd 07 a1 7a bd f0 8e a3 3e 9c 29 12 3d
       -0.03721595 -0.061188724 0.3194499 0.035684213
000390 ee 98 51 3e ab bb 7f 3e 29 82 c9 bd 93 a1 ae 3c
       0.20468494 0.24973933 -0.09839279 0.021317279
0003a0 8c fd 70 be ac d2 26 3e 89 bc 95 3d 78 3d 83 bd
       -0.2353422 0.16291302 0.07311351 -0.064082086
0003b0 f9 e4 d1 3d 89 1d 26 be 70 22 45 3e 87 47 77 be
       0.10248751 -0.16222204 0.19251418 -0.2414838
0003c0 63 55 b4 3d 50 b4 c2 bd 76 30 44 3e cd c0 51 3c
       0.08805349 -0.09507048 0.19159111 0.012802315
0003d0 1d c9 f1 bc b4 10 69 bc 16 18 ba bd e3 4c b3 3d
       -0.029514844 -0.014225174 -0.09086625 0.08754899
0003e0 a8 04 7e 3c 8b a2 0f be 0e 2b 82 3b 56 7a 2a be
       0.01550404 -0.14026849 0.0039724177 -0.1664823
0003f0 1d 24 0b be cc 00 4a bd 84 d5 b4 3e ef ad 89 be
       -0.13587995 -0.049317166 0.3531915 -0.26890513

module.feature_extraction.blocks.1.2.0.weight f4 [8]
000000 db 6c 7f 3f 19 7f 7f 3f fa 95 7f 3f 8c 22 80 3f
       0.99775475 0.9980331 0.9983822 1.0010543
000010 a2 13 80 3f 4e 6f 80 3f 25 4b 7f 3f a1 6f 80 3f
       1.0005991 1.0033967 0.99724036 1.0034066

module.feature_extraction.blocks.1.2.0.bias f4 [8]
000000 b1 10 c1 b9 5e f2 db 38 17 82 39 bb 8e 83 0f bb
       -0.00036824265 0.00010487878 -0.00283063 -0.002189848
000010 9c e1 15 3b a5 53 17 bb 7f 4e 56 bb 4e 81 db ba
       0.002287007 -0.0023090628 -0.0032700596 -0.001674691

module.feature_extraction.blocks.1.2.0.running_mean f4 [8]
000000 b9 2c 3b ba a5 d5 e3 be 41 9f a0 be ac 7b 82 3d
       -0.0007140148 -0.44498935 -0.313715 0.06371245
000010 ad 90 c1 3a 54 3b 8d 3e dc 83 98 3e d5 c4 ba bb
       0.0014767848 0.27584326 0.297881 -0.0056997337

module.feature_extraction.blocks.1.2.0.running_var f4 [8]
000000 a3 52 2c 3e 1d b5 86 3e 94 44 b7 3e e2 3e 1b 3e
       0.16828398 0.26310053 0.35794508 0.15160707
000010 a4 ba 76 3e ea 4e af 3e 31 5e 0d 3e 8e a4 9b 3e
       0.24094635 0.34239894 0.13805462 0.30398983
